model_v7_final.pt (torch, 133869 bytes, 10 tensors)

weight f4 [100, 3]
-0.45969015 0.05366862 0.6193074 -0.12940921 0.39298266 -0.654332 0.28248435 0.14344694
-0.1912425 -0.16415145 -0.45850927 -0.14976919 -0.22109264 -0.092339315 0.549231 0.1865452
-0.59120095 -0.36201078 0.46816966 0.056586314 -0.271088 0.35904035 0.33664754 -0.44758123
0.63601476 -0.25208017 0.090902105 -0.5018587 -0.5373814 -0.4251932 -0.48525658 -0.5956664
-0.1795631 0.021832868 0.23789942 0.34818938 -0.48243654 0.24426475 -0.05997074 -0.5361658
0.24507001 -0.5108079 0.31506684 0.29903242 -0.6731014 -0.23298988 0.15636775 0.033741333
0.06250883 -0.38496155 -0.49640703 -0.5119207 0.03674986 -0.4207343 -0.29512486 0.32007274
-0.1626282 0.7125879 -0.21250482 0.06587156 0.023455685 0.23573609 0.43960893 0.011569008
0.060836527 0.2773672 -0.11512637 -0.34882963 0.019802893 0.5157485 0.35614356 -0.46424392
-0.27349865 -0.34586886 0.15130955 0.104424976 -0.110003136 -0.47918576 0.5569318 0.34353665
-0.14290929 0.24630228 0.3607453 -0.1659669 0.30911526 -0.5764532 0.56155777 0.43686542
-0.3835551 -0.47609496 -0.12163331 -0.21808624 0.3854207 0.19585691 0.08994596 -0.00022273306
-0.49631593 0.04394523 -0.49437535 0.21248949 -0.3254906 0.25120178 0.2827716 -0.36017552
0.44983914 -0.26023886 0.36093447 0.24587288 -0.5465696 -0.36094347 0.17817461 0.5108907
0.08617108 -0.43210733 0.09137686 0.40505692 0.2882252 0.50873816 0.035577226 0.025474483
-0.13840131 0.36864224 -0.42564517 -0.5556087 -0.34119523 0.57949394 0.14500326 -0.1254511
0.6230194 -0.16880406 0.19327421 0.56322014 -0.41327056 -0.35053855 -0.48664644 -0.13032232
0.2998967 0.38301298 0.0841895 0.3499143 0.42182067 0.47037426 0.43934295 -0.49084625
0.23397996 -0.23481743 0.36281577 -0.26050985 0.21246047 -0.12410729 -0.33948368 -0.47386616
0.3177412 0.2211522 -0.29617858 0.22731183 -0.3063654 0.18002822 0.1380771 -0.5508046
0.23378237 -0.37880394 -0.13577092 -0.25026593 0.14403543 0.062063657 0.048775617 0.30502245
-0.02774054 0.2132294 -0.57114035 0.39572516 0.2716311 -0.14060813 -0.3581261 0.21958098
0.07150781 0.25222284 -0.41761422 -0.06500201 -0.035046916 -0.33019873 -0.40730038 -0.20232834
-0.3750864 -0.27256188 -0.21711428 -0.24641204 -0.033868145 0.495773 -0.04437318 -0.43958437
-0.4831696 -0.44679594 0.293042 0.3069884 0.28951085 -0.47373298 0.16848084 0.35511616
0.40491197 0.1699066 0.4660641 0.13997084 0.38361698 -0.11110489 -0.093904726 0.38415337
-0.6105062 -0.6200078 0.38708696 -0.37262294 -0.05368591 -0.3874991 -0.036154408 -0.5829411
-0.22073843 0.19050764 0.16463119 0.22258665 -0.51736176 0.0039576865 0.11328265 -0.38958883
0.09840872 0.32072797 0.32162172 -0.043246698 0.01295305 0.12758183 0.022369573 0.094951525
-0.49597386 0.524641 -0.50485253 -0.18938693 -0.3498039 0.34825855 -0.085739896 0.46036533
-0.05189537 -0.5751654 -0.30244765 0.59405416 0.445139 0.18873137 0.04814917 0.12900826
0.2019958 -0.03949166 -0.008500476 0.12125469 0.1676998 -0.08738108 0.46286193 0.31179336
00000000: 825c ebbe a0d3 5b3d ee8a 1e3f d983 04be
00000010: 0635 c93e 4d82 27bf caa1 903e c1e3 123e
00000020: 13d5 43be 5117 28be bac1 eabe 185d 19be
00000030: 1c66 62be 651c bdbd 679a 0c3f b405 3f3e
00000040: f258 17bf 7a59 b9be efb3 ef3e 0dc7 673d
00000050: 0ccc 8abe 23d4 b73e 115d ac3e 5e29 e5be
00000060: ddd1 223f a710 81be e22a ba3d d079 00bf
00000070: d491 09bf ecb2 d9be 8d73 f8be 987d 18bf
00000080: 64df 37be d8da b23c e89b 733e e145 b23e
00000090: ec01 f7be 8a20 7a3e e1a3 75bd 2942 09bf
000000a0: a2f3 7a3e 4ec4 02bf 7150 a13e c71a 993e
000000b0: 6050 2cbf e694 6ebe de1e 203e 5a34 0a3d
000000c0: a104 803d ae19 c5be 1029 febe 3c0d 03bf
000000d0: 0587 163d 7c6a d7be 9b1a 97be 93e0 a33e
000000e0: 0288 26be 296c 363f dd9a 59be abe7 863d
000000f0: 2326 c03c cd64 713e 6c14 e13e f08b 3d3c
00000100: b92f 793d 1303 8e3e 60c7 ebbd cc99 b2be
00000110: ad39 a23c 1808 043f 7358 b63e 61b1 edbe
00000120: 0408 8cbe b915 b1be e4f0 1a3e c3dc d53d
00000130: 5349 e1bd d657 f5be 1593 0e3f 09e4 af3e
00000140: d056 12be aa36 7c3e 9cb3 b83e 3af3 29be
00000150: 5b44 9e3e 7092 13bf 40c2 0f3f d3ac df3e
00000160: 5661 c4be b8c2 f3be e31a f9bd 0052 5fbe
00000170: dd55 c53e b78e 483e 9635 b83d 738d 69b9
00000180: 1f1d febe eaff 333d c41e fdbe d896 593e
00000190: b4a6 a6be 859d 803e 70c7 903e ed68 b8be
000001a0: 5151 e63e 073e 85be 67cc b83e 1ac6 7b3e
000001b0: fceb 0bbf 95cd b8be 6873 363e bcc9 023f
000001c0: 777a b03d 2c3d ddbe cb23 bb3d 9f63 cf3e
000001d0: 4192 933e aa3c 023f 6db9 113d ddaf d03c
000001e0: 13b9 0dbe adbe bc3e 2aee d9be 5f3c 0ebf
000001f0: 24b1 aebe b759 143f bc7b 143e 4176 00be
00000200: 337e 1f3f f9da 2cbe ade9 453e 322f 103f
00000210: 3398 d3be ca79 b3be b929 f9be 3773 05be
00000220: 0f8c 993e 471a c43e 8b6b ac3d f827 b33e
00000230: e1f8 d73e e5d4 f03e 8ff1 e03e 3350 fbbe
00000240: 7198 6f3e fb73 70be fdc2 b93e 8c61 85be
00000250: 3d8f 593e f62b febd ced0 adbe 969e f2be
00000260: f9ae a23e b975 623e b8a4 97be 6fc4 683e
00000270: eddb 9cbe 5159 383e 1564 0d3e 8801 0dbf
00000280: a564 6f3e 97f2 c1be 8807 0bbe db22 80be
00000290: 067e 133e 7636 7e3d f1c8 473d e72b 9c3e
000002a0: 2140 e3bc cf58 5a3e 4136 12bf 7d9c ca3e
000002b0: 3b13 8b3e 94fb 0fbe 4e5c b7be d6d9 603e
000002c0: b072 923d 5a23 813e 88d1 d5be c61f 85bd
000002d0: 5b8d 0fbd cf0f a9be ad89 d0be 292f 4fbe
000002e0: 530b c0be 3b8d 8bbe 3553 5ebe 7053 7cbe
000002f0: 53b9 0abd f5d5 fd3e a7c0 35bd 3411 e1be
00000300: 0162 f7be 70c2 e4be 9a09 963e 952d 9d3e
00000310: c43a 943e 218d f2be 3e86 2c3e c9d1 b53e
00000320: 9f50 cf3e fffb 2d3e f49f ee3e 8454 0f3e
00000330: 7269 c43e f68a e3bd 1f51 c0bd c0af c43e
00000340: 224a 1cbf d5b8 1ebf 4330 c63e 6fc8 bebe
00000350: c2e5 5bbd 4866 c6be a516 14bd a13b 15bf
00000360: 4109 62be 6f14 433e 1495 283e c1ed 633e
00000370: d271 04bf 7baf 813b bc00 e83d 3078 c7be
00000380: 838a c93d 7536 a43e 9aab a43e 7323 31bd
00000390: 0839 543c d0a4 023e 6540 b73c f275 c23d
000003a0: 49f0 fdbe df4e 063f 043e 01bf a6ee 41be
000003b0: 7f19 b3be f24e b23e 6698 afbd 01b5 eb3e
000003c0: 3d90 54bd 0a3e 13bf 6bda 9abe ef13 183f
000003d0: 42e9 e33e cc42 413e 1038 453d be1a 043e
000003e0: fdd7 4e3e 02c2 21bd 9545 0bbc 6154 f83d
000003f0: 7fb9 2b3e daf4 b2bd 3dfc ec3e 61a3 9f3e

bias f4 [100]
-0.078285486 -0.42427248 -0.0014193418 -0.48214513 0.6822464 0.017016811 -0.4065417 0.5537798
0.5193389 -0.32527414 -0.5229773 -0.69615865 -0.40009 -0.046845853 0.8169397 0.1700303
-0.14659056 0.21205905 -0.5364253 0.057433687 0.51407266 -0.27340138 -0.083447374 -0.60647017
-0.09404464 0.66769177 -0.6732361 -0.08851981 -0.10774346 -0.4878249 -0.12664986 -0.4255856
-0.5277835 -0.29079428 -0.14163505 -0.114388414 0.44229463 0.3012825 -0.14393105 -0.5436164
-0.14317447 0.19992933 0.23561811 0.62921983 -0.35971114 -0.9692158 0.6636347 -0.037463006
-0.4721971 -0.12311435 -0.22437869 -0.29949817 -0.4158933 0.187303 0.6358953 -0.37833047
0.08056076 0.64147156 0.33996683 -0.27222142 -0.43197352 0.6481528 0.28683007 -0.033077646
-0.30757353 -0.11112652 -0.21389657 -0.9438407 -0.46276215 0.08886106 -0.4209049 -0.62255436
0.53855485 -0.06702928 0.11321176 0.6941063 0.23841965 -0.46775827 -0.11107086 0.5269384
0.32164603 -0.8375396 0.22660625 0.74320763 0.35440865 0.27167347 -0.63612926 -0.09467969
0.18740238 -0.06280432 0.4202301 -0.7580885 -0.74688727 0.008430028 0.781285 -0.31334138
-0.5506188 -0.105561264 0.16899994 -0.62670636
00000000: 2454 a0bd 3e3a d9be 3509 baba badb f6be
00000010: b3a7 2e3f d766 8b3c 3c26 d0be 83c4 0d3f
00000020: 65f3 043f 558a a6be d7e1 05bf 7437 32bf
00000030: 99d8 ccbe 70e1 3fbd f622 513f 6c1c 2e3e
00000040: d61b 16be 0226 593e 2b53 09bf 963f 6b3d
00000050: 449a 033f 44fb 8bbe 75e6 aabd a141 1bbf
00000060: 7a9a c0bd d9ed 2a3f 3359 2cbf e049 b5bd
00000070: 9aa8 dcbd 2fc4 f9be 80b0 01be 5be6 d9be
00000080: d21c 07bf fde2 94be c708 11be 7944 eabd
00000090: 7174 e23e b341 9a3e a962 13be 722a 0bbf
000000a0: 549c 12be 46ba 4c3e e045 713e 8d14 213f
000000b0: 0f2c b8be 871e 78bf f7e3 293f cf72 19bd
000000c0: d1c3 f1be 6023 fcbd 87c3 65be d357 99be
000000d0: f7ef d4be 5ccc 3f3e 09ca 223f 88b4 c1be
000000e0: 0afd a43d 7b37 243f 2210 ae3e 9b60 8bbe
000000f0: a22b ddbe 58ed 253f 64db 923e 6d7c 07bd
00000100: 477a 9dbe 4d96 e3bd b407 5bbe 8b9f 71bf
00000110: 29ef ecbe cafc b53d d980 d7be b95f 1fbf
00000120: bbde 093f a646 89bd 91db e73d f3b0 313f
00000130: 4824 743e 037e efbe 1e79 e3bd 6fe5 063f
00000140: caae a43e ff68 56bf 780b 683e db42 3e3f
00000150: 0d75 b53e c918 8b3e 5ed9 22bf 6de7 c1bd
00000160: 69e6 3f3e 8d9f 80bd 6628 d73e 1712 42bf
00000170: 0134 3fbf 1a1e 0a3c 4b02 483f 486e a0be
00000180: 5bf5 0cbf 8130 d8bd 520e 2d3e d46f 20bf

weight f4 [100, 100]
-0.09230011 0.057151943 -0.02255591 0.07291584 -0.012150398 0.08319379 -0.09481323 -0.0337768
0.018013924 0.046285097 -0.051999718 0.025246838 -0.054444984 0.075189136 0.08380101 -0.11293737
0.07356345 0.07223081 -0.038158376 0.01350134 -0.05545582 0.009226333 0.109150514 -0.07095161
0.059463043 0.042065527 -0.07236377 -0.023416441 0.0894171 0.020529091 0.09203229 0.026675439
0.021301258 -0.022413887 0.027616546 -0.058721136 -0.024184976 0.07730882 -0.08647453 -0.0627894
0.006095597 -0.041523382 0.056099396 -0.03448034 0.10247445 -0.11950419 -0.15471849 -0.085842244
-0.025213454 0.037263617 0.12146312 -0.012342534 0.045131993 -0.026922235 0.12220841 -0.0078041703
-0.0055667157 -0.10586318 0.011258632 0.03823163 0.005539703 0.11853702 0.016576933 0.03800206
0.10433568 -0.068531774 -0.09434338 -0.038653396 -0.004389199 0.05154188 0.07167492 0.0909935
-0.032690946 0.085652106 -0.03288566 -0.11905136 0.04660233 0.14995956 -0.0016414747 -0.04224322
-0.08083765 -0.00092643034 0.040705785 -0.006150245 0.07582968 -0.002419677 0.015553676 -0.0434363
-0.0876055 0.03088087 -0.031199342 0.091868624 -0.033260174 -0.057478763 -0.0052379235 0.09387107
-0.022422513 -0.11057829 0.018094126 -0.06573877 -0.019076606 -0.046123426 -0.040243316 0.034179896
0.028149296 0.10271733 -0.0451352 -0.08254816 -0.0786766 0.046965804 0.03181551 0.0969309
0.09736623 -0.025485924 -0.02068113 -0.027832938 -0.051276315 -0.020500785 -0.012054601 0.03934204
-0.020660598 0.06911132 -0.042358767 -0.107441016 0.05509361 0.04844081 -0.027772147 -0.0793547
0.031696904 -0.05663862 -0.09359376 -0.08627784 -0.070807345 0.0555128 -0.060071792 0.0427705
-0.08397637 0.09120987 -0.08190963 0.052788477 -0.034557033 -0.0022238677 0.011158977 0.07484311
0.006147694 -0.029929662 0.09876882 -0.009212977 -0.0042713056 -0.05415498 0.08473204 -0.08284339
-0.05292726 0.049247373 0.028515192 0.03558902 -0.059324525 -0.08858883 0.03907925 0.011140281
0.08838672 0.09863695 0.032607734 0.09604051 0.026870092 -0.02100009 -0.052006777 0.053224083
-0.07044884 0.035983823 -0.021244397 0.020835731 -0.092884116 -0.052077252 -0.02259527 -0.07909759
-0.07764164 0.037325554 -0.08129105 0.059091665 -0.058798954 0.084549375 0.064486206 -0.088224895
-0.06632287 0.1003393 -0.053877488 0.09691961 0.046338473 0.07987455 -0.06213456 -0.066993386
-0.07594978 0.0061467336 -0.033880547 0.09357803 -0.04129496 -0.07710991 0.029849747 -0.08328105
-0.030034224 0.002593539 -0.07500256 0.0899717 0.03385161 -0.06459444 -0.056045122 0.038429614
0.1251185 -0.014820163 0.032312427 0.010264709 -0.115200974 0.036853686 0.005134475 -0.018218834
-0.044264358 -0.027279757 -0.05258185 0.12562324 0.018568955 0.115334354 0.024934622 0.077808835
-0.09425921 0.03834056 0.009600207 0.012495776 -0.014359115 -0.06145074 -0.048420504 -0.015490904
0.052521173 -0.018785654 0.09260791 -0.033380836 -0.06985393 0.03979937 -0.07431725 -0.009891802
-0.03956537 0.06459913 0.0030891418 0.049107447 0.07692522 -0.022952203 0.072346546 0.06583082
0.020814827 0.0051346743 -0.070708245 -0.09642165 0.047745135 0.025673253 0.114201605 0.08823868
00000000: d707 bdbd 2818 6a3d 2cc7 b8bc e654 953d
00000010: 7712 47bc 8161 aa3d 702d c2bd 8b59 0abd
00000020: f091 933c 7195 3d3d a8fd 54bd 75d2 ce3c
00000030: b401 5fbd c3fc 993d dd9f ab3d b54b e7bd
00000040: 6fa8 963d bfed 933d f54b 1cbd b934 5d3c
00000050: a425 63bd 0c2a 173c 4e8a df3d 144f 91bd
00000060: 858f 733d e74c 2c3d 7533 94bd d6d3 bfbc
00000070: 5020 b73d a02c a83c 6d7b bc3d 7386 da3c
00000080: fa7f ae3c 549d b7bc 183c e23c 9385 70bd
00000090: 921f c6bc 1654 9e3d 8f19 b1bd bb97 80bd
000000a0: 93bd c73b 6c14 2abd 7bc8 653d 423b 0dbd
000000b0: 20de d13d 9dbe f4bd 866e 1ebe 0fce afbd
000000c0: 728c cebc bca1 183d a8c1 f83d 5738 4abc
000000d0: 53dc 383d 058c dcbc 6748 fa3d 20ba ffbb
000000e0: ff68 b6bb cbce d8bd 2076 383c c598 1c3d
000000f0: 6686 b53b 8ac3 f23d 59cc 873c 0ca8 1b3d
00000100: f2ad d53d 635a 8cbd 1a37 c1bd 0653 1ebd
00000110: 45d3 8fbb 941d 533d 4dca 923d cd5a ba3d
00000120: f1e6 05bd 5f6a af3d 1db3 06bd 33d1 f3bd
00000130: 16e2 3e3d 008f 193e c026 d7ba 3a07 2dbd
00000140: 368e a5bd b0db 72ba 1cbb 263d ff87 c9bb
00000150: 974c 9b3d 7293 1ebb d8d4 7e3c 43ea 31bd
00000160: 836a b3bd e1f9 fc3c c395 ffbc 9e25 bc3d
00000170: d23b 08bd da6e 6bbd e3a2 abbb 7a3f c03d
00000180: 6baf b7bc df76 e2bd 223a 943c 0ca2 86bd
00000190: 8b46 9cbc ebeb 3cbd 2dd6 24bd 3800 0c3d
000001a0: 5a99 e63c 775d d23d b0df 38bd 020f a9bd
000001b0: 3221 a1bd 375f 403d fb50 023d b583 c63d
000001c0: f267 c73d dbc7 d0bc 796b a9bc e701 e4bc
000001d0: 1d07 52bd 43f1 a7bc a980 45bc 1e25 213d
000001e0: 6a40 a9bc 3c8a 8d3d 6380 2dbd 090a dcbd
000001f0: d6a9 613d df69 463d 6a82 e3bc b884 a2bd
00000200: 9dd4 013d e6fd 67bd 16ae bfbd 70b2 b0bd
00000210: 7103 91bd 6461 633d d70d 76bd 1f30 2f3d
00000220: cefb abbd 3ecc ba3d 3cc0 a7bd bb38 583d
00000230: ad8b 0dbd 4fbe 11bb 24d4 363c 5847 993d
00000240: 9872 c93b 0d2f f5bc 4f47 ca3d 07f2 16bc
00000250: 4ff6 8bbb 9dd1 5dbd fe87 ad3d cca9 a9bd
00000260: 41ca 58bd 9db7 493d b198 e93c cbc5 113d
00000270: 46fe 72bd 0f6e b5bd 9011 203d ba85 363c
00000280: 1904 b53d 2b02 ca3d b08f 053d e3b0 c43d
00000290: ab1e dc3c 6108 acbc 0f05 55bd 7f01 5a3d
000002a0: 7b47 90bd c663 133d bb08 aebc b2af aa3c
000002b0: 073a bebd f54e 55bd b719 b9bc ebfd a1bd
000002c0: 9502 9fbd aee2 183d ec7b a6bd 1a0a 723d
000002d0: 2cd7 70bd 3928 ad3d 5811 843d 41af b4bd
000002e0: 49d4 87bd b17e cd3d a4ae 5cbd ca7d c63d
000002f0: 69cd 3d3d 4595 a33d cf80 7ebd d433 89bd
00000300: 8f8b 9bbd 8a6a c93b 54c6 0abd d7a5 bf3d
00000310: e724 29bd cdeb 9dbd 7587 f43c 418f aabd
00000320: 550a f6bc 5df8 293b f19a 99bd 1543 b83d
00000330: fca7 0a3d 174a 84bd 928f 65bd 5f68 1d3d
00000340: 101f 003e 45d0 72bc 095a 043d 4f2d 283c
00000350: 7dee ebbd e4f3 163d 193f a83b aa3f 95bc
00000360: 8b4e 35bd cc79 dfbc 1160 57bd 61a3 003e
00000370: ec1d 983c 6b34 ec3d b143 cc3c 3d5a 9f3d
00000380: f90a c1bd fe0a 1d3d 304a 1d3c 15bb 4c3c
00000390: 7e42 6bbc c5b3 7bbd 9454 46bd 90cd 7dbc
000003a0: 7120 573d 5fe4 99bc 37a9 bd3d 58ba 08bd
000003b0: 940f 8fbd aa04 233d a433 98bd 3a11 22bc
000003c0: 4c0f 22bd 8c4c 843d 3373 4a3b e424 493d
000003d0: f88a 9d3d 4206 bcbc 6d2a 943d 4fd2 863d
000003e0: db83 aa3c c540 a83b 7ccf 90bd b778 c5bd
000003f0: 6790 433d b750 d23c 88e2 e93d 7bb6 b43d

bias f4 [100]
-0.008884663 0.02684636 -0.056239735 0.09476145 -0.45542276 -0.16654642 0.021253154 0.17027557
0.06791484 0.46450007 -0.010835999 0.042609707 0.09908836 0.034627844 0.021133086 0.0020977259
0.018825997 0.0038007256 -0.17383228 -0.06337755 -0.418037 -0.08678186 -0.00063344685 0.08289639
0.037679397 -0.085494496 0.1535247 0.015499948 -0.11107187 0.20554273 0.07255846 -0.0027763343
-0.093484744 -0.10365461 -0.22149862 0.18841776 0.049199194 0.07337756 -0.00816913 -0.09369388
0.4254797 -0.012026572 -0.085737355 0.032359313 -0.116704255 0.036425866 0.002564615 0.030954333
0.10878553 0.08397102 0.0020336988 0.01437992 -0.087596126 0.532102 0.020574303 0.007864089
0.09908926 0.016026484 -0.08867226 -0.08055837 0.05330328 -0.06949531 0.2814037 -0.0015658247
-0.13696684 -0.061373986 0.0006287832 0.340026 -0.12758996 -0.0053852955 0.012860412 -0.06289323
0.37850505 -0.041854918 0.14275014 -0.3253287 0.10808614 0.09415497 -0.063967496 -0.17632651
0.08526709 0.075696975 0.008099613 0.011144606 -0.23314086 0.031437494 0.033510234 -0.09955268
-0.24797118 -0.14053668 -0.19711478 -0.03200545 -0.10112882 -0.21805683 -0.0015591485 0.004546335
-0.19952524 -0.0921695 0.11584366 0.04306115
00000000: fa90 11bc e6ec db3c a35b 66bd 4b12 c23d
00000010: 2c2d e9be 258b 2abe 181b ae3c b85c 2e3e
00000020: f016 8b3d f4d2 ed3e 7989 31bc 8487 2e3d
00000030: d7ee ca3d edd5 0d3d 4b1f ad3c 007a 093b
00000040: fa38 9a3c 9815 793b 1701 32be 17cc 81bd
00000050: f208 d6be b0ba b1bd e60d 26ba 95c5 a93d
00000060: b655 1a3d bd17 afbd 9435 1d3e 7ef3 7d3c
00000070: a679 e3bd cb79 523e 8899 943d 29f3 35bb
00000080: ee74 bfbd de48 d4bd 89d0 62be 96f0 403e
00000090: 1885 493d f946 963d d1d7 05bc 94e2 bfbd
000000a0: 7ad8 d93e 190b 45bc 1197 afbd 338b 043d
000000b0: a402 efbd 4a33 153d 1a13 283b f193 fd3c
000000c0: f3ca de3d 00f9 ab3d ce47 053b c299 6b3c
000000d0: 9965 b3bd d637 083f 718b a83c 61d8 003c
000000e0: 4fef ca3d f949 833c cd99 b5bd c9fb a4bd
000000f0: 8a54 5a3d 8f53 8ebd 2514 903e 5c3c cdba
00000100: 0941 0cbe 4a63 7bbd edd4 243a e317 ae3e
00000110: f1a6 02be 2277 b0bb 7ab4 523c 2ace 80bd
00000120: 6acb c13e 1070 2bbd 182d 123e 7c91 a6be
00000130: 445c dd3d 52d4 c03d 6401 83bd f08e 34be
00000140: 83a0 ae3d 0407 9b3d 3db4 043c de97 363c
00000150: 7abc 6ebe 9ac4 003d 0742 093d 47e2 cbbd
00000160: 28ec 7dbe d9e8 0fbe 75d8 49be 2618 03bd
00000170: a01c cfbd 4a4a 5fbe 585c ccba 6cf9 943b
00000180: 5850 4cbe 5dc3 bcbd 713f ed3d e360 303d

weight f4 [100, 100]
0.033417962 0.0556744 -0.046056587 0.053258695 -0.05776765 0.025950387 -0.002496563 0.020403946
0.08361481 -0.005832061 0.01441677 -0.012399949 -0.027134513 0.051811326 -0.03322408 -0.04840369
0.001785448 -0.10580861 -0.04515295 -0.02885006 0.03664261 0.04257123 0.019984808 -0.01831793
-0.0076787802 0.052615426 -0.044392243 -0.02776793 0.090222046 -0.04679682 -0.09179789 -0.031990685
-0.04107593 0.075024776 -0.1093396 0.05422979 0.066378705 0.10665871 0.06744567 -0.07693412
-0.017709209 -0.037063792 0.03490863 -0.05468219 -0.038191915 0.011550783 -0.038049106 -0.09339423
0.060724165 0.07458974 0.064906426 -0.035326757 0.04002524 -0.11692084 0.05832055 -0.07258974
0.027914634 0.08236249 -0.02834457 0.058197293 0.033978976 -0.014141313 0.13094659 -0.007562151
0.088821635 0.028116591 0.07517648 -0.08894302 0.003949258 0.017506994 0.08949065 0.091060705
0.09649245 -0.063993365 0.06844144 -0.056113154 0.023221038 -0.114626795 -0.019937685 0.05155245
-0.095176294 -0.041522827 -0.08112082 0.03895754 -0.016336782 -0.044424463 0.019429471 -0.051738065
0.05289164 0.022946341 -0.04605137 -0.05159102 -0.025741873 -0.012271606 0.02284352 -0.10030569
-0.0596667 0.105720125 -0.072158754 0.00943059 -0.0067449575 0.06796247 0.06827003 0.0068463646
-0.04819438 -0.03350936 -0.02433227 -0.04697397 0.041560564 -0.09205623 0.014582713 -0.03464591
-0.015085956 -0.104181156 0.0647014 0.035463132 0.025789732 0.095479466 -0.19360632 -0.069702804
0.16598208 -0.029546771 -0.027263515 -0.04844911 -0.01473264 -0.007814509 0.016340615 -0.058403708
-0.033284627 0.12103797 -0.08079604 -0.0722116 0.08128254 -0.08012248 0.039188277 -0.0096642
-0.07493429 0.019466808 0.15384999 -0.023337934 0.004980656 0.0083754705 0.044463255 0.07831956
-0.090040974 -0.060391992 -0.06479033 -0.06817549 -0.007330313 -0.079786174 0.0055642677 0.09597662
0.013449316 0.056950692 0.0053342343 -0.007333233 0.091507584 0.09161181 -0.025963552 -0.045227677
0.032460097 0.008399176 -0.0321085 0.041970152 -0.06769304 0.05779489 -0.024053067 -0.023588665
-0.06141432 0.05151277 -0.113013 0.06333759 0.13581812 0.08521219 0.113308646 0.010418576
-0.05491827 0.037958853 -0.005258727 -0.04276923 -0.023726765 0.056121424 0.015325631 -0.038499314
-0.04438563 0.09797044 -0.041180406 0.06719411 -0.0730479 0.051611744 0.09897868 -0.053856026
-0.022750383 -0.026293658 -0.07623162 0.029865809 -0.13420732 -0.019624041 -0.081628196 0.057645462
-0.055151552 0.09595895 0.04584005 0.051330753 0.056389097 0.077388205 -0.08005388 -0.039160922
-0.06707156 0.09121062 -0.0539717 -0.09213067 -0.04438482 -0.05890534 0.05969246 0.0003620237
-0.0071317437 0.056844767 0.117702134 0.051543824 0.11890959 0.08244847 -0.03429757 -0.1043462
0.01719698 -0.023746524 0.029359987 0.049615633 0.087607816 -0.08235396 -0.074318 -0.09245939
0.020503396 0.025552314 0.014034238 -0.0470649 0.021330534 0.03360976 -0.102524474 0.0915933
-0.091153696 0.023291066 0.08120857 -0.09167195 0.06987418 -0.08788654 -0.051684346 0.09161249
0.05992401 -0.0853753 -0.019203927 0.00964815 0.09549701 -0.081814386 -0.071961544 0.062202517
00000000: 46e1 083d d70a 643d d5a5 3cbd ca25 5a3d
00000010: c59d 6cbd e895 d43c 609d 23bb 2d26 a73c
00000020: 3e3e ab3d e01a bfbb 5134 6c3c 2829 4bbc
00000030: 3349 debc 1d38 543d f915 08bd f342 46bd
00000040: b205 ea3a 2fb2 d8bd 4df2 38bd f656 ecbc
00000050: 9016 163d 2c5f 2e3d 2eb7 a33c 7c0f 96bc
00000060: 479e fbbb 4683 573d a4d4 35bd 9279 e3bc
00000070: 56c6 b83d 06ae 3fbd 8800 bcbd aa08 03bd
00000080: 3c3f 28bd 97a6 993d 71ed dfbd 0e20 5e3d
00000090: 8ff1 873d e26f da3d f520 8a3d a38f 9dbd
000000a0: e712 91bc 34d0 17bd 5afc 0e3d 6ffa 5fbd
000000b0: 206f 1cbd 7f3f 3d3c 61d9 1bbd 7945 bfbd
000000c0: e7b9 783d 81c2 983d a9ed 843d cab2 10bd
000000d0: 82f1 233d 3274 efbd 87e1 6e3d eea9 94bd
000000e0: 3bad e43c aaad a83d df32 e8bc 4960 6e3d
000000f0: 8a2d 0b3d f7b0 67bc dd16 063e eccb f7bb
00000100: 1ee8 b53d c454 e63c 20f6 993d c227 b6bd
00000110: c768 813b d46a 8f3c e046 b73d 097e ba3d
00000120: d59d c53d f40e 83bd 072b 8c3d e8d6 65bd
00000130: 0c3a be3c 74c1 eabd 5b54 a3bc a928 533d
00000140: caeb c2bd d713 2abd ac22 a6bd f191 1f3d
00000150: b7d4 85bc 6df6 35bd 8e2a 9f3c 4beb 53bd
00000160: e8a4 583d f7f9 bb3c 5da0 3cbd 1b51 53bd
00000170: 9fe0 d2bc d90e 49bc 5522 bb3c 126d cdbd
00000180: 1265 74bd cb83 d83d f8c7 93bd c382 1a3c
00000190: ce04 ddbb e82f 8b3d 28d1 8b3d 7857 e03b
000001a0: 7867 45bd 1c41 09bd 7854 c7bc c767 40bd
000001b0: 693b 2a3d fa87 bcbd 55ec 6e3c dfe8 0dbd
000001c0: 162b 77bc ee5c d5bd 2b82 843d ca41 113d
000001d0: fd44 d33c bd8a c33d bc40 46be 58c0 8ebd
000001e0: 35f7 293e 120c f2bc bc57 dfbc 9372 46bd
000001f0: 2c61 71bc 6d08 00bc c1dc 853c ba38 6fbd
00000200: 7655 08bd c1e2 f73d 6578 a5bd ade3 93bd
00000210: 7677 a63d 4117 a4bd e383 203d 9856 1ebc
00000220: 2677 99bd db78 9f3c da8a 1d3e 322f bfbc
00000230: c534 a33b 4539 093c 1a1f 363d 0166 a03d
00000240: 6767 b8bd 985d 77bd cbb0 84bd 979f 8bbd
00000250: 1f33 f0bb ef66 a3bd 7654 b63b 648f c43d
00000260: 855a 5c3c 2145 693d cdca ae3b 9e4b f0bb
00000270: 5468 bb3d f99e bb3d 84b1 d4bc a840 39bd
00000280: e1f4 043d b39c 093c 3484 03bd e5e8 2b3d
00000290: a6a2 8abd 56ba 6c3d f00a c5bc 043d c1bc
000002a0: 958d 7bbd 0eff 523d 5c73 e7bd 23b7 813d
000002b0: e813 0b3e bb83 ae3d 5d0e e83d adb2 2a3c
000002c0: fbf1 60bd be7a 1b3d 6651 acbb ca2e 2fbd
000002d0: a25e c2bc 94df 653d 5b18 7b3c 75b1 1dbd
000002e0: b5cd 35bd baa4 c83d c9ac 28bd 119d 893d
000002f0: 239a 95bd d666 533d 56b5 ca3d 2398 5cbd
00000300: 035f babc cc65 d7bc 531f 9cbd 24a9 f43c
00000310: a56d 09be 99c2 a0bc af2c a7bd a61d 6c3d
00000320: 98e6 61bd 2086 c43d c7c2 3b3d 3240 523d
00000330: 41f8 663d b57d 9e3d 4af3 a3bd 3467 20bd
00000340: d05c 89bd a2cc ba3d 6e11 5dbd 01af bcbd
00000350: dbcc 35bd ba46 71bd 1580 743d 00ce bd39
00000360: 67b1 e9bb 0fd6 683d d10d f13d 9e1f 533d
00000370: df86 f33d beda a83d 9c7b 0cbd 76b3 d5bd
00000380: aee0 8c3c 1288 c2bc 5b84 f03c c339 4b3d
00000390: ba6b b33d 31a9 a8bd 0934 98bd 595b bdbd
000003a0: bdf6 a73c 1653 d13c dcef 653c 20c7 40bd
000003b0: 5fbd ae3c 63aa 093d 5af8 d1bd 4595 bb3d
000003c0: caae babd e8cc be3c ae50 a63d 81be bbbd
000003d0: 321a 8f3d dcfd b3bd f7b2 53bd 549f bb3d
000003e0: e172 753d 3fd9 aebd 8e51 9dbc 4613 1e3c
000003f0: f093 c33d 4d8e a7bd 9360 93bd 11c8 7e3d

bias f4 [100]
0.060935017 0.1994386 -0.3173169 0.20850423 0.22249597 0.0957918 -0.0141787855 -0.1060681
0.0451453 0.10653025 0.08999659 -0.02549376 -0.003789264 -0.07872421 0.008117832 0.039076485
0.2422042 -0.18175259 0.022491377 -0.6419796 0.05194059 0.09986403 0.0838825 -0.068787515
-0.10200438 0.034734737 -0.038145494 0.085509166 -0.04106803 -0.106828615 -0.11226816 -0.51271194
0.06288723 -0.0077403174 0.20261592 0.014105562 0.23414311 -0.011864889 0.105554834 0.04764401
-0.072591454 0.12607723 0.04554978 -0.013243004 0.2197698 0.027057467 0.06730054 0.069183335
-0.024035571 0.043420687 -0.0118201235 0.014854665 0.16045736 -0.14075515 0.03066994 0.13115324
0.0235675 0.13655217 0.14937721 -0.14793566 0.12905177 -0.11454185 -0.17361471 0.00716042
-0.04980237 0.04906671 -0.05311427 0.057057597 0.11245529 0.19334133 0.18150075 -0.27697796
-0.04779011 0.041439895 0.02319422 -0.073530056 0.14114124 0.14674018 -0.07849325 -0.02069036
0.078814134 -0.071698956 -0.14654663 -0.12193622 -0.09467711 0.049494445 -0.14395839 0.04275705
0.046270635 0.080049194 -0.13355607 0.016050098 0.12573157 0.21566725 0.044326626 -0.03044853
-0.12253534 -0.43848285 0.1713213 -0.02441645
00000000: ff96 793d a239 4c3e 5c77 a2be 2282 553e
00000010: fcd5 633e 7e2e c43d 234e 68bc 3b3a d9bd
00000020: 47ea 383d 882c da3d 2250 b83d 4ad8 d0bc
00000030: 4d55 78bb 293a a1bd a800 053c aa0e 203d
00000040: 6104 783e 5a1d 3abe d63f b83c c658 24bf
00000050: a8bf 543d 8385 cc3d 97ca ab3d 78e0 8cbd
00000060: ace7 d0bd 0346 0e3d 733e 1cbd 6e1f af3d
00000070: f336 28bd f6c8 dabd d9ec e5bd 1741 03bf
00000080: 05cb 803d 7da2 fdbb 8c7a 4f3e 041b 673c
00000090: 36c3 6f3e f464 42bc 222d d83d 5e26 433d
000000a0: d4aa 94bd 641a 013e 6892 3a3d 2ff9 58bc
000000b0: 560b 613e 9fa7 dd3c ded4 893d feaf 8d3d
000000c0: 3fe6 c4bc e4d9 313d 31a9 41bc fb60 733c
000000d0: ef4e 243e 1e22 10be 873f fb3c 094d 063e
000000e0: a110 c13c 55d4 0b3e 57f6 183e 727c 17be
000000f0: 2626 043e eb94 eabd 0ec8 31be f5a1 ea3b
00000100: 92fd 4bbd 2dfa 483d 598e 59bd 3ab5 693d
00000110: f64e e63d 45fb 453e 55db 393e 0ed0 8dbe
00000120: 90bf 43bd e1bc 293d ce01 be3c ed96 96bd
00000130: 5487 103e 0f43 163e 12c1 a0bd d47e a9bc
00000140: 4e69 a13d e7d6 92bd 5210 16be b2b9 f9bd
00000150: 13e6 c1bd b0ba 4a3d d469 13be 0422 2f3d
00000160: 4786 3d3d d5f0 a33d ecc2 08be 7f7b 833c
00000170: c7bf 003e e0d7 5c3e d68f 353d 326f f9bc
00000180: cff3 fabd d380 e0be da6e 2f3e 0205 c8bc

weight f4 [100, 100]
0.0068522748 -0.04305344 0.018768523 0.04784498 0.08776939 -0.052308872 0.06574145 0.12254737
-0.07852026 0.0118325 -0.112782925 -0.06828123 -0.095744774 -0.037425537 -0.024578188 -0.021619
0.012658551 0.11599318 0.04554633 0.23300509 0.04614399 0.07975599 -0.004925704 0.079373054
-0.040826954 0.04089633 -0.08253206 0.0867367 0.07290521 -0.025206422 0.022688558 0.020095821
-0.019023113 -0.018370908 0.13284114 0.04495125 0.114527844 0.083057195 0.09363653 -0.10479698
0.015390562 -0.13452902 -0.0056735226 -0.025429578 -0.026002113 0.07532692 -0.064389475 0.026124295
-0.06583834 -0.09237342 0.051831286 -0.013862972 -0.045264225 -0.033721246 0.04776828 0.10856996
-0.015527477 -0.02630219 0.032231346 0.13107717 0.02200927 -0.055462774 0.12817492 -0.05609421
-0.11909338 0.08643399 0.0853571 0.04860699 -0.014293245 -0.10418754 0.12573932 0.17149852
0.06441938 -0.054979593 0.12070715 0.02967387 -0.09703197 -0.013626796 -0.06301589 0.045958567
0.005184073 -0.05088936 -0.008880934 0.059513398 -0.07868785 -0.027172502 0.1048484 0.0126957735
0.050259873 0.05226723 -0.013232748 0.0927249 0.1745764 0.06481453 0.13800754 0.023022536
0.10491698 0.06714556 -0.11599435 -0.108794555 0.07134194 0.029332872 -0.082792215 0.047629077
0.091390505 -0.097916126 -0.026186094 -0.09126751 -0.074998744 0.017421998 -0.03861191 -0.014587596
0.055734463 -0.025167387 -0.087871104 0.06380464 -0.006899725 0.07098617 0.07973548 -0.054043856
0.05468198 -0.07610206 -0.07714472 -0.046311237 -0.07522557 0.07512997 -0.023437425 -0.049373113
-0.06599541 -0.025276497 0.053691793 0.025857337 0.057353184 0.050066564 -0.07099749 0.07359884
0.008419327 0.0074272724 -0.025404729 -0.0119006485 0.051901367 -0.010689123 0.0633758 -0.08204721
-0.08952017 0.08897086 0.049556457 -0.08528219 0.0011466619 -0.037179988 -0.043820776 0.0054225996
-0.060168814 0.027503781 -0.015744388 -0.06488061 0.05347524 -0.063546576 0.0017634477 0.083915815
0.0033052827 -0.06445272 -0.06793756 -0.028556526 -0.08348538 -0.035731696 0.06868202 -0.06439893
-0.08182472 -0.0036881543 -0.080761254 -0.098313875 -0.058095295 -0.09071671 -0.0032396838 0.022113584
-0.021653475 0.03369992 -0.00038798153 -0.023486543 -0.021388348 -0.076260425 0.024845643 -0.08949343
-0.063353516 0.0383295 -0.045404796 -0.04243329 0.022756364 0.00023533404 0.01719417 0.04751559
-0.03268604 0.04500147 0.05578497 0.08176857 -0.04728188 0.09481169 -0.09584566 0.02004522
0.02636867 -0.067748204 -0.023701463 0.055756137 -0.021108525 -0.034533754 -0.051385656 -0.011669618
-0.029204106 -0.0793291 0.13256639 -0.080836415 -0.030615693 0.06603322 -0.09103769 0.1590648
-0.069641046 0.021475164 -0.08756875 -0.036265615 0.0122377705 0.064044796 0.07934407 -0.011036451
-0.014397874 -0.035107844 0.105093874 -0.01691435 -0.06808544 -0.08996681 0.089993775 -0.0367646
0.08620333 0.028092042 0.08030488 0.06458981 -0.083242804 -0.0147374375 0.05860487 -0.060582716
0.0053525707 -0.011945226 -0.08345535 -0.02928141 0.018989716 0.04288308 0.0678486 0.09580404
0.077823415 0.016002884 0.04998262 -0.07470684 0.03876831 0.14628887 0.06857556 0.039255932
00000000: 0c89 e03b ce58 30bd 72c0 993c 19f9 433d
00000010: 70c0 b33d d441 56bd 74a3 863d 1efa fa3d
00000020: 3bcf a0bd 1add 413c bcfa e6bd 08d7 8bbd
00000030: d615 c4bd 854b 19bd 3258 c9bc 541a b1bc
00000040: d065 4f3c d58d ed3d ca8e 3a3d e398 6e3e
00000050: 7b01 3d3d 1c57 a33d cd67 a1bb 578e a23d
00000060: 2a3a 27bd e982 273d 9206 a9bd 03a3 b13d
00000070: 544f 953d b37d cebc 5bdd b93c fe9f a43c
00000080: 5cd6 9bbc 967e 96bc 8207 083e cd1e 383d
00000090: 938d ea3d e419 aa3d 82c4 bf3d cd9f d6bd
000000a0: b228 7c3c fac1 09be f5e8 b9bb b151 d0bc
000000b0: 6202 d5bc 0045 9a3d a1de 83bd 9e02 d63c
000000c0: 40d6 86bd 472e bdbd 0b4d 543d 8521 63bc
000000d0: fb66 39bd 4a1f 0abd aca8 433d ed59 de3d
000000e0: f566 7ebc b177 d7bc 0405 043d 1839 063e
000000f0: c94c b43c ef2c 63bd 4940 033e 0bc3 65bd
00000100: 3be7 f3bd 4e04 b13d b4cf ae3d 2018 473d
00000110: 372e 6abc 4760 d5bd cfc1 003e 4f9d 2f3e
00000120: 4fee 833d 4832 61bd 4f35 f73d 9e16 f33c
00000130: b3b8 c6bd ed42 5fbc 7a0e 81bd 0d3f 3c3d
00000140: 28df a93b 5d71 50bd 5681 11bc 52c4 733d
00000150: 1827 a1bd de98 debc c2ba d63d ef01 503c
00000160: 4cdd 4d3d 2a16 563d 2bce 58bc 8de6 bd3d
00000170: 28c4 323e 7bbd 843d d951 0d3e c299 bc3c
00000180: b7de d63d 9d83 893d 728e edbd aecf debd
00000190: b91b 923d 7e4b f03c f78e a9bd b516 433d
000001a0: f22a bb3d 4088 c8bd 3884 d6bc 76ea babd
000001b0: f198 99bd 94b8 8e3c 8627 1ebd d000 6fbc
000001c0: d249 643d d62b cebc c4f5 b3bd 02ac 823d
000001d0: 1717 e2bb 3261 913d 5b4c a33d 175d 5dbd
000001e0: 36fa 5f3d 66db 9bbd 0dfe 9dbd dab0 3dbd
000001f0: dd0f 9abd bedd 993d d8ff bfbc 763b 4abd
00000200: 9a28 87bd a810 cfbc edeb 5b3d c4d2 d33c
00000210: 2ceb 6a3d 9912 4d3d 2267 91bd fdba 963d
00000220: 38f1 093c 7a60 f33b 941d d0bc f0fa 42bc
00000230: 8796 543d 6e21 2fbc 2ccb 813d 5e08 a8bd
00000240: 5a56 b7bd 5b36 b63d b6fb 4a3d 6ea8 aebd
00000250: 974b 963a 0b4a 18bd 6a7d 33bd 10b0 b13b
00000260: 9373 76bd 9c4f e13c 60fa 80bc 20e0 84bd
00000270: da08 5b3d b524 82bd 7c23 e73a 0edc ab3d
00000280: 719d 583b caff 83bd d922 8bbd 60ef e9bc
00000290: 62fa aabd 665b 12bd 29a9 8c3d 96e3 83bd
000002a0: b893 a7bd f6b4 71bb 2866 a5bd c958 c9bd
000002b0: 55f5 6dbd afc9 b9bd e050 54bb 8c27 b53c
000002c0: a162 b1bc ed08 0a3d 006a cbb9 da66 c0bc
000002d0: 9e36 afbc 6d2e 9cbd 1789 cb3c 5548 b7bd
000002e0: 7dbf 81bd 65ff 1c3d 61fa 39bd 88ce 2dbd
000002f0: 8e6b ba3c 00c4 7639 cada 8c3c b59f 423d
00000300: cce1 05bd 7653 383d c87e 643d 4876 a73d
00000310: a5aa 41bd a22c c23d bb4a c4bd e035 a43c
00000320: 1c03 d83c 92bf 8abd 9229 c2bc 8c60 643d
00000330: c9eb acbc 4473 0dbd c479 52bd ed31 3fbc
00000340: 733d efbc 4c77 a2bd 7cbf 073e 908d a5bd
00000350: c3cd fabc 6d3c 873d f871 babd e2e1 223e
00000360: f79f 8ebd afec af3c 3f57 b3bd 418b 14bd
00000370: ee80 483c eb29 833d 257f a23d 3bd2 34bc
00000380: 0fe5 6bbc 3ecd 0fbd 753b d73d f78f 8abc
00000390: 6170 8bbd 8540 b8bd a84e b83d 7a96 16bd
000003a0: 5f8b b03d 4821 e63c e376 a43d aa47 843d
000003b0: 347b aabd 4b75 71bc a90b 703d 9525 78bd
000003c0: 9e64 af3b e9b5 43bc a3ea aabd 91df efbc
000003d0: 5290 9b3c 2ba6 2f3d 35f4 8a3d e934 c43d
000003e0: e261 9f3d 7b18 833c 93ba 4c3d e6ff 98bd
000003f0: 85cb 1e3d c0cc 153e 5871 8c3d d4ca 203d

bias f4 [100]
-0.07191209 -0.023514334 0.027951226 -0.0111368885 0.06739566 0.03758139 -0.060011875 0.006752802
-0.034562435 -0.07091216 -0.016582007 0.08433229 0.00757459 0.01916419 0.06405164 -0.2504763
0.2268236 0.025396498 0.15250766 0.2028761 -0.028896365 0.14733191 0.070047446 0.115976065
0.26761574 -0.111292146 0.08420297 -0.06329947 0.037749402 -0.05863972 -0.058283336 0.033569235
0.15456088 -0.0695687 -0.011097577 0.09235599 0.017596502 0.07375046 0.25928828 0.15300156
0.09598783 -0.07197411 -0.034525856 0.10597864 -0.062777795 -0.052762855 -0.39749983 -0.094052605
0.026973683 -0.01704096 -0.03421888 0.073361546 0.208258 0.0679093 -0.077555254 0.0074724676
-0.3442674 -0.0749746 0.051868357 0.043928053 -0.14008443 -0.023836214 0.073890656 -0.10029468
0.05631046 0.42899656 -0.03783529 0.088025026 0.08461802 -0.07212203 0.1229868 0.0081022605
-0.06561404 0.19143896 0.09441576 0.26752132 0.028994793 0.04862779 0.14283153 0.090077035
-0.020072382 0.06201586 -0.11621423 -0.08629494 0.029640421 -0.029498003 0.12199532 0.01879619
0.18264922 0.036945157 0.04150415 0.07775313 -0.038140696 0.0010246547 0.13279924 0.010046005
0.050434273 -0.039917994 0.05045989 0.13664077
00000000: a546 93bd 22a1 c0bc f8f9 e43c 7f77 36bc
00000010: bc06 8a3d f2ee 193d 03cf 75bd 9c46 dd3b
00000020: 5791 0dbd 653a 91bd fdd6 87bc 68b6 ac3d
00000030: 4434 f83b 38fe 9c3c 822d 833d 6e3e 80be
00000040: 7244 683e 510c d03c f82a 1c3e c1be 4f3e
00000050: 12b8 ecbc 2dde 163e 0975 8f3d dc84 ed3d
00000060: ee04 893e 23ed e3bd 9b72 ac3d 27a3 81bd
00000070: 1e9f 1a3d 3430 70bd 82ba 6ebd e57f 093d
00000080: 3545 1e3e 097a 8ebd 9dd2 35bc 2325 bd3d
00000090: 8a26 903c 7b0a 973d 6fc1 843e 71ac 1c3e
000000a0: 4495 c43d 2a67 93bd fc6a 0dbd 540b d93d
000000b0: a591 80bd dd1d 58bd 1985 cbbe a79e c0bd
000000c0: eaf7 dc3c 7c99 8bbc 1929 0cbd 943e 963d
000000d0: 9641 553e 0814 8b3d 4ad5 9ebd 9adb f43b
000000e0: d143 b0be 488c 99bd ea73 543d e7ed 333d
000000f0: 4b72 0fbe 2a44 c3bc fc53 973d 4c67 cdbd
00000100: cca5 663d 70a5 db3e 2df9 1abd 7746 b43d
00000110: 364c ad3d b7b4 93bd 81e0 fb3d 58bf 043c
00000120: a760 86bd 9308 443e 0d5d c13d 8ef8 883e
00000130: 7d86 ed3c ef2d 473d 6e42 123e 4f7a b83d
00000140: d66e a4bc 5804 7e3d ba01 eebd 67bb b0bd
00000150: 78d0 f23c cca5 f1bc afd8 f93d 78fa 993c
00000160: 6608 3b3e ce53 173d 4100 2a3d 083d 9f3d
00000170: 6b39 1cbd b54d 863a 86fc 073e 0098 243c
00000180: 2b94 4e3d 0d81 23bd 08af 4e3d 8feb 0b3e

weight f4 [7, 100]
0.046900917 -0.032294914 -0.025010878 0.041863892 -0.048727077 0.043640587 -0.059566412 0.09714586
-0.044281352 -0.12889305 0.014767551 0.044239175 -0.013849834 -0.053543694 0.09606303 0.015930464
0.022487657 -0.07067674 -0.0010205171 -0.046578053 -0.09707966 0.02198626 -0.0038753792 -0.0024403583
-0.109801985 0.04987089 -0.16867486 -0.028405456 -0.0777553 -0.029917037 0.04786228 -0.012470775
-0.09953451 0.041626565 -0.04401271 0.06059877 -0.0046334155 0.07972741 0.012075786 0.04379536
-0.036149897 -0.0029251408 0.028289512 0.04258221 0.057636708 -0.09723594 0.07078978 -0.07458379
0.06739077 0.042901397 -0.042115495 -0.049061805 -0.20187816 -0.14866523 -0.042931493 0.042254478
-0.07239057 -0.0025771132 -0.04110399 -0.046475604 -0.04273418 -0.09063419 0.06532235 0.061110225
0.084567755 -0.12750217 -0.06588447 0.092579484 -0.10658957 0.04399136 -0.14114797 0.083537735
0.0721437 -0.184306 -0.066046886 -0.008271156 -0.032707237 0.09189908 -0.10021899 0.06614618
0.02601228 -0.12537524 -0.14142534 -0.030348333 0.026322806 -0.10071319 -0.038895655 0.058414645
-0.031056829 0.03368703 -0.15750262 0.012362619 -0.016496392 0.00032910137 -0.02036876 -0.0027705282
0.0053973333 0.052967116 -0.1505067 0.00449441 -0.24979942 -0.0005789467 0.22241129 -0.12970129
0.016956406 0.080253474 0.08961969 0.04256099 0.15971223 0.16321419 -0.006502036 0.090678096
0.025648477 0.13804008 0.058191936 0.16473106 -0.06935502 0.3854531 0.05689677 -0.16172749
0.021034181 -0.011259043 0.17489001 0.22654453 -0.2364662 0.024267308 0.00085304916 0.051349815
-0.26688236 -0.032095093 -0.0027858247 -0.07378561 -0.10330928 0.063524656 0.02751113 -0.25529638
0.05698668 0.005199763 -0.034201622 -0.006300958 -0.01021225 0.06285674 -0.019053651 -0.07325729
0.029101413 0.010444039 -0.019431217 -0.009865232 0.251361 0.07001133 -0.06058716 0.03317461
-0.38313016 0.10006513 0.08740314 0.17091112 -0.18075684 -0.043641564 -0.21061146 0.18733424
-0.31875122 0.041722372 -0.077721454 -0.023811936 0.08339856 -0.07398736 0.09400514 -0.15151581
0.15990902 -0.016386619 -0.21549985 -0.059607983 -0.026796577 -0.16022593 -0.06657917 -0.008220914
0.0015167727 -0.026579635 -0.37367252 0.097233 -0.15865369 -0.14365341 -0.18564339 0.022312663
0.120848164 0.30849245 -0.18612276 -0.0023449343 -0.36910215 -0.04817585 0.011176924 0.10632044
0.40466872 -0.07076295 -0.31093094 -0.0040644147 -0.0738796 0.07725941 0.028429769 0.11530234
0.23472 0.08092461 -0.046432167 0.15859519 0.040945694 -0.023569299 0.15492883 0.009595369
0.16038802 -0.20633562 -0.0092363935 0.08971091 -0.0788562 0.13134812 -0.012945492 0.10925611
-0.03801133 -0.029108008 -0.30761155 0.3777221 -0.0016689666 -0.17718622 -0.14162616 0.22554412
0.28733942 -0.060306646 0.24704379 -0.11976046 0.0022248721 0.16566987 0.067491114 0.19395734
-0.36188117 -0.053206243 -0.1575699 0.06460683 -0.4117853 0.06857089 0.10183891 -0.09149342
0.09507997 0.004431197 -0.12014841 0.24823406 0.13721249 0.18098547 -0.1456882 -0.034922447
0.2033523 0.13522916 0.054433525 0.021447072 0.27677664 -0.14603955 -0.14818114 0.052170385
00000000: 2d1b 403d ac47 04bd 9de3 ccbc 7979 2b3d
00000010: 0b96 47bd 79c0 323d e9fb 73bd 69f4 c63d
00000020: 5d60 35bd 8afc 03be 99f3 713c 2334 353d
00000030: 6aea 62bc a250 5bbd b2bc c43d 9b80 823c
00000040: 0938 b83c f7be 90bd dfc2 85ba a1c8 3ebd
00000050: b3d1 c6bd 871c b43c 13fa 7dbb 6bee 1fbb
00000060: dddf e0bd 6b45 4c3d 1ab9 2cbe 8fb2 e8bc
00000070: 2c3e 9fbd 9314 f5bc 3d0b 443d 3952 4cbc
00000080: c0d8 cbbd 9e80 2a3d ac46 34bd 6a36 783d
00000090: e8d3 97bb 2048 a33d 84d9 453c c362 333d
000000a0: ea11 14bd b8b3 3fbb 68bf e73c af6a 2e3d
000000b0: 7814 6c3d a323 c7bd 3bfa 903d 63bf 98bd
000000c0: 2c04 8a3d 60b9 2f3d 4c81 2cbd 08f5 48bd
000000d0: 26b9 4ebe b33b 18be efd8 2fbd 0813 2d3d
000000e0: 8241 94bd c9e4 28bb a85c 28bd 345d 3ebd
000000f0: 090a 2fbd 6b9e b9bd b9c7 853d b74e 7a3d
00000100: dc31 ad3d ee8f 02be 70ee 86bd 509a bd3d
00000110: a24b dabd 4930 343d 1889 10be d515 ab3d
00000120: 14c0 933d b6ba 3cbe 9743 87bd be83 07bc
00000130: 06f8 05bd 9635 bc3d 9d3f cdbd a677 873d
00000140: b417 d53c 5e62 00be ced1 10be 119d f8bc
00000150: eda2 d73c b842 cebd 0d51 1fbd 3244 6f3d
00000160: e46a febc 69fb 093d 5e48 21be 958c 4a3c
00000170: 7123 87bc 3d8b ac39 63dc a6bc c091 35bb
00000180: 1ddc b03b 0cf4 583d 6e1e 1abe d845 933b
00000190: 6bcb 7fbe 75c4 17ba c9bf 633e 6ad0 04be
000001a0: 29e8 8a3c ef5b a43d 878a b73d 6f54 2e3d
000001b0: 9a8b 233e 9f21 273e 080f d5bb 70b5 b93d
000001c0: c11c d23c 615a 0d3e ab5a 6e3d 42af 283e
000001d0: 010a 8ebd 1c5a c53e 960c 693d e49b 25be
000001e0: e04f ac3c d977 38bc 5e16 333e 4afb 673e
000001f0: 3224 72be 3ccc c63c 299f 5f3a 2f54 523d
00000200: cea4 88be 2576 03bd 6292 36bb e91c 97bd
00000210: d193 d3bd 3719 823d 055f e13c 35b6 82be
00000220: dd6a 693d c662 aa3b 0017 0cbd 4478 cebb
00000230: 4851 27bc 09bb 803d 6716 9cbc eb07 96bd
00000240: 1666 ee3c 791d 2b3c 372e 9fbc c8a1 21bc
00000250: 64b2 803e 1a62 8f3d 3e2a 78bd 1ae2 073d
00000260: a329 c4be f2ee cc3d 6b00 b33d 5303 2f3e
00000270: 5218 39be 7fc1 32bd 88aa 57be 8cd4 3f3e
00000280: 5c33 a3be 14e5 2a3d 6d2c 9fbd 4011 c3bc
00000290: ddcc aa3d af86 97bd c485 c03d f626 1bbe
000002a0: 31bf 233e 3b3d 86bc feab 5cbe 8027 74bd
000002b0: 7f84 dbbc 4412 24be a95a 88bd 03b1 06bc
000002c0: 72ce c63a 89bd d9bc 0152 bfbe 1822 c73d
000002d0: 1d76 22be e119 13be 4d19 3ebe 0cc9 b63c
000002e0: 3e7f f73d b9f2 9d3e f796 3ebe 78ad 19bb
000002f0: f5fa bcbe 0a54 45bd 6b1f 373c 88be d93d
00000300: bd30 cf3e 2aec 90bd 5732 9fbe c82e 85bb
00000310: 304e 97bd 2e3a 9e3d 8ce5 e83c a223 ec3d
00000320: 715a 703e cdbb a53d a82f 3ebd c766 223e
00000330: acb6 273d 6714 c1bc aaa5 1e3e e535 1d3c
00000340: c23c 243e a549 53be 3e54 17bc 5bba b73d
00000350: 5c7f a1bd 1f80 063e 5419 54bc abc1 df3d
00000360: c5b1 1bbd eb73 eebc 437f 9dbe cb64 c13e
00000370: 3ac1 daba 4e70 35be 7306 11be 0af5 663e
00000380: 271e 933e 1a04 77bd 0cf9 7c3e f944 f5bd
00000390: 29cf 113b 5da5 293e c838 8a3d c19c 463e
000003a0: 7d48 b9be caee 59bd 015a 21be 9650 843d
000003b0: 86d5 d2be e56e 8c3d eb90 d03d e760 bbbd
000003c0: 4ab9 c23d 9333 913b 5f10 f6bd 1231 7e3e
000003d0: 6e81 0c3e 4154 393e 4a2f 15be d70a 0fbd
000003e0: 963b 503e 8379 0a3e b0f5 5e3d c5b1 af3c
000003f0: abb5 8d3e 648b 15be ccbc 17be 9db0 553d

bias f4 [7]
-0.14174847 0.05732547 0.46880257 -0.38927746 0.26806197 -0.19335775 -0.0006318413
00000000: 8326 11be 1dce 6a3d e406 f03e 604f c7be
00000010: 6b3f 893e 93ff 45be 27a2 25ba
