model_v6_antrenat.pt (torch, 133719 bytes, 10 tensors)

weight f4 [100, 3]
-0.43628383 0.021308288 0.65252244 -0.11681268 0.38974872 -0.66474015 0.25088355 0.12482474
-0.1891489 -0.13534418 -0.4764979 -0.10617012 -0.3280079 -0.036074657 0.45239547 0.12023416
-0.61997074 -0.35494408 0.53186846 0.043558404 -0.14582376 0.3392215 0.28207535 -0.43020502
0.6538832 -0.2596927 0.08874458 -0.54441285 -0.50702035 -0.43392 -0.45434302 -0.6067438
-0.1673358 0.037696864 0.27555358 0.2858524 -0.39667544 0.3107871 -0.12473278 -0.5600437
0.25202632 -0.38604322 0.31148407 0.28201845 -0.64125764 -0.2101088 0.15637277 0.09066314
0.061739083 -0.3771751 -0.50382316 -0.49953824 0.1310619 -0.38198638 -0.32581612 0.31252044
-0.15560225 0.73278195 -0.22197269 0.044468693 0.027927198 0.2253538 0.4138647 -0.07222976
0.12549317 0.2024019 -0.14997242 -0.34332746 0.014004434 0.49106166 0.36185724 -0.44397208
-0.3628541 -0.30649734 0.15043837 -0.03880139 -0.17402178 -0.49134874 0.47738504 0.32142463
-0.14353126 0.2953027 0.29686204 -0.16552465 0.26689717 -0.5946053 0.5583353 0.4314044
-0.3810553 -0.47285396 -0.08934028 -0.12503168 0.5212356 0.10451664 -0.041580394 -0.00593443
-0.5261319 -0.0063651223 -0.46482146 0.20215644 -0.33595133 0.2392903 0.29418454 -0.33029574
0.46752164 -0.25161445 0.33227202 0.23486765 -0.5349478 -0.37724537 0.051223423 0.4718114
0.07894757 -0.4306403 0.17263728 0.34528643 0.2979836 0.35984856 -0.16088383 0.05599492
-0.19762404 0.34056515 -0.39205348 -0.5462441 -0.33654502 0.5857181 0.24490625 -0.17690605
0.6037852 -0.19113007 0.17450877 0.55594754 -0.4205406 -0.36296916 -0.46417773 -0.023384953
0.25309035 0.3986485 0.14854865 0.3677553 0.310402 0.40259957 0.36417627 -0.5707875
0.24750262 -0.16940339 0.39927852 -0.20755258 0.21134193 -0.12603107 -0.31998795 -0.4478555
0.34069857 0.2981848 -0.28300902 0.1654734 -0.33066761 0.16925152 0.10144935 -0.50147796
0.19170335 -0.46996862 -0.1601724 -0.1990124 0.110771075 0.097118184 0.07310944 0.26599312
0.020130297 0.18127614 -0.52890825 0.38313064 0.26066172 -0.13811506 -0.34554687 0.20863838
0.0666683 0.23007095 -0.43064082 -0.10064454 -0.085682176 -0.35949466 -0.40102115 -0.13951032
-0.37819648 -0.2569024 -0.23230831 -0.24270935 -0.022427347 0.49725476 -0.11197734 -0.41674224
-0.43568698 -0.43167856 0.25218225 0.24615471 0.25989532 -0.5434388 0.14363968 0.31247064
0.38847804 0.15050636 0.439586 0.10236408 0.39540955 -0.07562641 -0.18982194 0.45062837
-0.55627763 -0.6943514 0.3651825 -0.37136525 -0.057134595 -0.46059176 -0.149474 -0.48750755
-0.16836166 0.18747821 0.17445473 0.25047582 -0.51552343 0.022551598 0.12738721 -0.38618937
0.0860711 0.27162224 0.29533473 -0.0033710282 0.020132836 0.13396871 0.049291264 0.11890197
-0.49525133 0.51953995 -0.57504845 -0.22105338 -0.3986069 0.36415765 -0.079883575 0.43551725
0.016330957 -0.50648755 -0.40437523 0.55861866 0.41681856 0.23883237 0.10297122 0.13673836
0.2277679 0.041336764 -0.0081848735 0.13361724 0.025520947 -0.02876231 0.45945823 0.22589177
00000000: 9860 dfbe b88e ae3c b60b 273f 7d3b efbd
00000010: 258d c73e 692c 2abf cf73 803e 1da4 ff3d
00000020: 40b0 41be aa97 0abe 88f7 f3be b86f d9bd
00000030: a7f0 a7be 05c3 13bd 61a0 e73e 543d f63d
00000040: 67b6 1ebf 3bbb b5be 8828 083f 4c6a 323d
00000050: d352 15be 71ae ad3e 2e6c 903e d543 dcbe
00000060: e464 273f 71f6 84be b8bf b53d a45e 0bbf
00000070: 16cc 01bf c32a debe a69f e8be 9053 1bbf
00000080: 135a 2bbe 0768 1a3d 5c15 8d3e 3f5b 923e
00000090: 0b19 cbbe 7d1f 9f3e e673 ffbd 065f 0fbf
000000a0: 9809 813e 75a7 c5be d77a 9f3e b964 903e
000000b0: 7629 24bf c326 57be 2f20 203e 99ad b93d
000000c0: 1fe2 7c3d 181d c1be 8efa 00bf 7ac3 ffbe
000000d0: 1735 063e b893 c3be 5fd1 a6be ae02 a03e
000000e0: 3256 1fbe 9997 3b3f cf4c 63be ce24 363d
000000f0: 94c7 e43c 26c3 663e 13e6 d33e 32ed 93bd
00000100: 4881 003e 7242 4f3e 5f92 19be 9ec8 afbe
00000110: db72 653c 6f6c fb3e 5a45 b93e 4f50 e3be
00000120: 03c8 b9be 38ed 9cbe 840c 1a3e 35ee 1ebd
00000130: c432 32be 1092 fbbe d06b f43e c591 a43e
00000140: dcf9 12be ea31 973e 4dfe 973e 4b7f 29be
00000150: bfa6 883e 0e38 18bf 10ef 0e3f 0ae1 dc3e
00000160: ae19 c3be ea19 f2be 09f8 b6bd 4e08 00be
00000170: b26f 053f d20c d63d 3450 2abd 9b75 c2bb
00000180: 95b0 06bf 8492 d0bb 14fd edbe 1902 4f3e
00000190: d001 acbe 8408 753e 5b9f 963e 861c a9be
000001a0: ff5e ef3e 9cd3 80be 8f1f aa3e 2581 703e
000001b0: 57f2 08bf 4e26 c1be a7cf 513d 4491 f13e
000001c0: 43af a13d e37c dcbe d4c7 303e 62c9 b03e
000001d0: 4e91 983e 123e b83e bbbe 24be ee5a 653d
000001e0: f55d 4abe 8e5e ae3e 3cbb c8be a7d6 0bbf
000001f0: a14f acbe 9ff1 153f b4c8 7a3e dc26 35be
00000200: ab91 1a3f 9ab7 43be 6db2 323e 9452 0e3f
00000210: 1951 d7be 18d7 b9be b4a8 edbe cd91 bfbc
00000220: 0f95 813e a81b cc3e 231d 183e 6c4a bc3e
00000230: 03ed 9e3e 8821 ce3e 5075 ba3e 211f 12bf
00000240: 5471 7d3e 1578 2dbe 3c6e cc3e aa88 54be
00000250: 056a 583e 4a0e 01be 76d5 a3be 514d e5be
00000260: 0b70 ae3e aeab 983e 8fe6 90be dc71 293e
00000270: 444d a9be 4550 2d3e adc4 cf3d dc60 00bf
00000280: e24d 443e ba9f f0be 3c04 24be e8c9 4bbe
00000290: f2db e23d e6e5 c63d 67ba 953d 4030 883e
000002a0: 4be8 a43c 74a0 393e 8866 07bf b329 c43e
000002b0: 7475 853e 096e 0dbe 85eb b0be 4da5 553e
000002c0: 6489 883d b897 6b3e f47c dcbe b91e cebd
000002d0: 237a afbd af0f b8be a552 cdbe cbdb 0ebe
000002e0: f8a2 c1be b688 83be 3be2 6dbe cd88 78be
000002f0: 8eb9 b7bc 2d98 fe3e 6054 e5bd 3d5f d5be
00000300: 5d12 dfbe f904 ddbe 081e 813e fb0f 7c3e
00000310: 0011 853e ce1e 0bbf 4816 133e 27fc 9f3e
00000320: 98e6 c63e 571e 1a3e 6b11 e13e 42a4 d13d
00000330: 1f73 ca3e 05e2 9abd af60 42be c3b8 e63e
00000340: 3668 0ebf 03c1 31bf 33f9 ba3e 9623 bebe
00000350: f705 6abd afd2 ebbe b60f 19be 979a f9be
00000360: 0067 2cbe 4afa 3f3e 43a4 323e 5e3e 803e
00000370: 58f9 03bf 21be b83c cb71 023e 9dba c5be
00000380: 0b46 b03d 1212 8b3e 1d36 973e 78ec 5cbb
00000390: 9eed a43c 182f 093e a3e5 493d e082 f33d
000003a0: 9591 fdbe 9200 053f 6036 13bf d15b 62be
000003b0: 3416 ccbe df72 ba3e 009a a3bd 1efc de3e
000003c0: 80c8 853c 2ba9 01bf 450a cfbe a201 0f3f
000003d0: 3e69 d53e 7990 743e 93e2 d23d 2405 0c3e
000003e0: fd3b 693e bd50 293d d919 06bc f5d2 083e
000003f0: 4e11 d13c f09e ebbc 1c3e eb3e 2c50 673e

bias f4 [100]
-0.044058684 -0.5004407 0.07924223 -0.48982793 0.82442313 0.009581367 -0.3982734 0.66384107
0.50362355 -0.32748482 -0.5218477 -0.71031964 -0.42896432 0.020319505 0.8180905 0.18429177
-0.14963327 0.29335958 -0.58282584 0.067313366 0.40428632 -0.2620263 -0.08881436 -0.627132
-0.0902874 0.70202744 -0.61667097 -0.020630307 -0.11089036 -0.49036056 -0.142398 -0.31312603
-0.51205254 -0.29918498 -0.1340483 -0.019341683 0.45188 0.28183156 -0.19883399 -0.5707343
-0.09948881 0.16848862 0.27546197 0.64266944 -0.36410472 -0.9933349 0.6139274 -0.09133154
-0.47075704 -0.09293506 -0.22075821 -0.29499507 -0.48496544 0.09651777 0.6958872 -0.50973916
0.012513586 0.60016656 0.34087157 -0.2748069 -0.43170732 0.64147323 0.280069 -0.040373802
-0.30774814 -0.11290341 -0.15516363 -0.92263365 -0.4682483 0.10678744 -0.4318048 -0.5859368
0.53086925 -0.06425162 0.12742521 0.6794 0.23715463 -0.4678558 -0.10177753 0.5516092
0.34976974 -0.7806262 0.09679367 0.8037386 0.42261213 0.20511642 -0.78217876 -0.20779093
0.21657912 -0.0843687 0.45298994 -0.8209794 -0.7632914 0.011327577 0.80740255 -0.31150585
-0.5456789 -0.13158189 0.12060059 -0.6420564
00000000: e176 34bd e21c 00bf c049 a23d baca fabe
00000010: 650d 533f 2afb 1c3c 7eea cbbe 7df1 293f
00000020: 79ed 003f 17ac a7be d097 05bf 82d7 35bf
00000030: 36a1 dbbe 1775 a63c 616e 513f fbb6 3c3e
00000040: 7739 19be 3a33 963e 1334 15bf 97db 893d
00000050: 9efe ce3e 5028 86be 4ee4 b5bd b98b 20bf
00000060: 9ae8 b8bd 12b8 333f 26de 1dbf e400 a9bc
00000070: 7c1a e3bd 8a10 fbbe c8d0 11be 0e52 a0be
00000080: e015 03bf c62e 99be f543 09be 7372 9ebc
00000090: d15c e73e 3a4c 903e 239b 4bbe a51b 12bf
000000a0: cac0 cbbd 4888 2c3e 5a09 8d3e fc85 243f
000000b0: ef6b babe 324b 7ebf 592a 1d3f 080c bbbd
000000c0: 1107 f1be bd54 bebd 710e 62be 9809 97be
000000d0: 644d f8be 1cab c53d aa25 323f 447e 02bf
000000e0: c905 4d3c 84a4 193f b886 ae3e 7db3 8cbe
000000f0: be08 ddbe 9737 243f 3465 8f3e 005f 25bd
00000100: 2a91 9dbe e739 e7bd 37e3 1ebe b831 6cbf
00000110: 3ebe efbe 60b3 da3d 8515 ddbe f4ff 15bf
00000120: 0ce7 073f 5a96 83bd c17b 023e 29ed 2d3f
00000130: aad8 723e cc8a efbe bd70 d0bd 4336 0d3f
00000140: 0515 b33e 1ed7 47bf c23b c63d d0c1 4d3f
00000150: 9e60 d83e 0a0a 523e de3c 48bf 25c7 54be
00000160: ebc6 5d3e 7fc9 acbd 4cee e73e b52b 52bf
00000170: 1167 43bf 4d97 393c efb1 4e3f b27d 9fbe
00000180: 9db1 0bbf 67bd 06be 71fd f63d cf5d 24bf

weight f4 [100, 100]
-0.06766284 0.016672214 -0.015767822 0.061628498 -0.029179111 0.078201964 -0.09079907 -0.05073668
0.010580144 -0.017565126 -0.08244638 0.041276436 -0.07101301 0.030223856 0.052672926 -0.11214737
0.060059655 0.021459365 -0.050672147 0.011062162 -0.023851292 0.00842939 0.09520971 -0.05239379
0.03631943 0.011568054 -0.03486155 -0.02027533 0.07723495 0.0053900843 0.08017777 0.0317752
-0.026580289 -0.027782204 0.018920152 -0.037817646 -0.03685702 0.0888366 -0.03793811 -0.059569973
-0.018624097 -0.05261363 0.04748606 -0.005350212 0.039563145 -0.09158316 -0.11418902 -0.09961062
-0.02948856 0.024693403 0.1043666 -0.017344575 0.04655383 -0.069132544 0.09916505 -0.007358732
-0.03928215 -0.1061076 0.001324 0.03637698 -0.012138243 0.07679633 0.009486415 0.039967544
0.084829435 -0.093537994 -0.08546212 -0.0045835315 -0.0058140587 0.02953179 0.06916146 0.03896684
-0.018166872 0.07992592 -0.040507447 -0.10411311 0.052816276 0.13738558 -0.05415696 -0.046459753
-0.08385989 0.022612063 0.054620802 -0.008448897 0.06846952 -0.00044446927 0.026522586 -0.028115092
-0.08627936 0.026457679 -0.011310341 0.063787796 -0.005779068 -0.063617975 -0.027702559 0.07154769
-0.030696977 -0.1183653 0.003189274 -0.05957461 -0.0037710487 -0.06975375 -0.045084417 0.027625432
0.0127334315 0.102451496 -0.06284743 -0.08301018 -0.14551309 0.05124896 0.015107813 0.12953024
0.10135263 -0.056604873 -0.021396622 -0.01059697 -0.050642308 -0.04321506 -0.00841452 -0.020075498
-0.010825413 0.08304712 -0.056125753 -0.09107986 0.04128015 0.048998144 -0.0299099 -0.0788539
-0.025185302 -0.057488 -0.09101874 -0.087870516 -0.09194965 0.03135907 -0.109766886 0.075792775
-0.10119181 0.084203444 -0.05696347 0.025196077 -0.046172462 0.013879439 -0.016624695 0.08543608
0.0051145125 0.0016595604 0.10353598 0.012567174 -0.0341098 -0.05163757 0.07196075 -0.10768151
-0.030453546 0.009520986 0.026089873 0.046111923 -0.06709829 -0.11300242 0.041720413 0.00889514
0.088695176 0.09979898 0.021529153 0.0953832 0.0059658554 0.0014862472 -0.029865861 0.06949236
-0.07309373 0.03545961 -0.025509596 0.020066565 -0.07536423 -0.053025775 -0.036458265 -0.097979516
-0.0723184 0.0037795338 -0.08667443 0.018316222 -0.058487363 0.08969608 0.0669014 -0.10632738
-0.08076342 0.1029874 -0.035308048 0.12487445 0.045512527 0.074838035 -0.08817905 -0.08043024
-0.050800383 -0.0011964337 -0.04113282 0.09410743 -0.054736584 -0.096747614 0.046082012 -0.06129879
-0.02555473 0.05437732 -0.07546056 0.08749255 -0.0145328855 -0.04818595 -0.061305255 0.023278678
0.119282655 -0.002504506 0.056643564 0.0102075385 -0.08560485 0.058153838 -0.0023482884 -0.014809863
-0.048145078 -0.046597186 -0.0027899467 0.14328077 -0.035920408 0.102534175 0.03217922 0.10763457
-0.078875184 0.07064298 0.050415244 0.019706683 0.012790535 -0.04104366 -0.035203036 -0.018421873
0.09614941 -0.005943528 0.09418386 -0.0179189 -0.027562385 0.04149069 -0.110127404 -0.014081864
0.007731396 0.09513509 -0.0521483 -0.003404439 0.08957169 0.008143539 0.0023595951 0.08124609
0.008739675 0.028925238 -0.04209722 -0.08640619 0.07357383 0.024957737 0.1337831 0.113164894
00000000: d192 8abd 2b94 883c 852b 81bc 2a6e 7c3d
00000010: 0809 efbc 5a28 a03d ddf4 b9bd 44d1 4fbd
00000020: 5758 2d3c bde4 8fbc a6d9 a8bd 7b11 293d
00000030: 456f 91bd 0598 f73c 91bf 573d 85ad e5bd
00000040: 1d01 763d 8dcb af3c 998d 4fbd 123e 353c
00000050: c963 c3bc 6d1b 0a3c 4ffd c23d df9a 56bd
00000060: afc3 143d ef87 3d3c fcca 0ebd 7318 a6bc
00000070: 5c2d 9e3d 4e9f b03b 3e34 a43d b626 023d
00000080: e8be d9bc 8197 e3bc 6ffe 9a3c ade6 1abd
00000090: 63f7 16bd f7ef b53d fe64 1bbd a5ff 73bd
000000a0: 9091 98bc 6481 57bd be80 423d d550 afbb
000000b0: f70c 223d f48f bbbd efdb e9bd a700 ccbd
000000c0: fe91 f1bc d249 ca3c 28be d53d 3616 8ebc
000000d0: 3baf 3e3d 5d95 8dbd 0c17 cb3d 8521 f1bb
000000e0: 52e6 20bd f14e d9bd 118a ad3a 0700 153d
000000f0: 7bdf 46bc 6547 9d3d e96c 1b3c 02b5 233d
00000100: 0ebb ad3d d990 bfbd c406 afbd 7331 96bb
00000110: dc83 bebb a7ec f13c 86a4 8d3d b19b 1f3d
00000120: b1d2 94bc 33b0 a33d 23eb 25bd 4139 d5bd
00000130: e155 583d ceae 0c3e b0d3 5dbd 954c 3ebd
00000140: bcbe abbd ef3c b93c 10ba 5f3d 3e6d 0abc
00000150: bf39 8c3d a807 e9b9 e545 d93c 9f51 e6bc
00000160: 3cb3 b0bd c6bd d83c 024f 39bc 2da3 823d
00000170: 565e bdbb 244a 82bd 7af0 e2bc 9887 923d
00000180: 3a78 fbbc 8269 f2bd 2403 513b 8204 74bd
00000190: b323 77bb 0edb 8ebd 70aa 38bd bb4e e23c
000001a0: e29f 503c 17d2 d13d 27b6 80bd 3e01 aabd
000001b0: 6201 15be 6eea 513d c386 773c 93a3 043e
000001c0: f891 cf3d 83da 67bd f847 afbc ea9e 2dbc
000001d0: 4f6e 4fbd 4602 31bd 0edd 09bc 5f75 a4bc
000001e0: 135d 31bc 9c14 aa3d 1ee4 65bd 1488 babd
000001f0: 6015 293d 47b2 483d 9b05 f5bc 277e a1bd
00000200: 6851 cebc 8978 6bbd 0868 babd 75f5 b3bd
00000210: 1950 bcbd 5e72 003d 76cd e0bd 3e39 9b3d
00000220: a73d cfbd db72 ac3d 8752 69bd 0168 ce3c
00000230: 561f 3dbd 9666 633c 8330 88bc 1df9 ae3d
00000240: a497 a73b 9b85 d93a ac0a d43d 8ce6 4d3c
00000250: b8b6 0bbd eb81 53bd 2860 933d 2088 dcbd
00000260: b779 f9bc e9fd 1b3c 6eba d53c dbdf 3c3d
00000270: d46a 89bd d06d e7bd 06e3 2a3d ecbc 113c
00000280: d1a5 b53d 6863 cc3d e85d b03c 4458 c33d
00000290: 397d c33b 2ece c23a 40a9 f4bc 0352 8e3d
000002a0: 2ab2 95bd 193e 113d 80f9 d0bc a362 a43c
000002b0: 9058 9abd 8e31 59bd 4355 15bd 7ca9 c8bd
000002c0: ab1b 94bd 0eb2 773b 5d82 b1bd e70b 963c
000002d0: 7290 6fbd 94b2 b73d 9a03 893d 2bc2 d9bd
000002e0: 4b67 a5bd 0feb d23d 2c9f 10bd 2dbe ff3d
000002f0: 586b 3a3d af44 993d 3897 b4bd 9cb8 a4bd
00000300: 1014 50bd a7d1 9cba e37a 28bd 65bb c03d
00000310: 7833 60bd 9d23 c6bd 7ec0 3c3d 7114 7bbd
00000320: 2758 d1bc c1ba 5e3d 118b 9abd 4b2f b33d
00000330: 571b 6ebc a15e 45bd 381b 7bbd edb2 be3c
00000340: 774a f43d a322 24bb 1503 683d 853d 273c
00000350: 9851 afbd b832 6e3d bee5 19bb 11a5 72bc
00000360: c633 45bd b1dc 3ebd 8ad7 36bb 32b8 123e
00000370: 4721 13bd 70fd d13d 5cce 033d 836f dc3d
00000380: 5089 a1bd 44ad 903d 3780 4e3d e96f a13c
00000390: 648f 513c 661d 28bd 0f31 10bd 78e9 96bc
000003a0: fbe9 c43d edc1 c2bb 78e3 c03d a8ca 92bc
000003b0: 83ca e1bc 24f2 293d 7a8a e1bd 9eb7 66bc
000003c0: a657 fd3b 30d6 c23d 7599 55bd 021d 5fbb
000003d0: 5d71 b73d 7a6c 053c 70a3 1a3b 5a64 a63d
000003e0: db30 0f3c 9ff4 ec3c 226e 2cbd bbf5 b0bd
000003f0: e0ad 963d 2b74 cc3c 70fe 083e ffc2 e73d

bias f4 [100]
-0.018089117 -0.0065467255 -0.11742772 0.101111576 -0.56620795 -0.16293137 0.021253154 0.15527394
0.2102286 0.1829312 -0.02594226 0.057838716 0.047133327 -0.018047167 0.022487698 0.0020977259
-0.08112809 -0.1546691 -0.23604694 -0.057095245 -0.28898636 0.04352738 0.049888562 0.1582729
0.026501352 -0.16890211 0.46147576 0.017062126 -0.23140214 0.21272783 0.08846098 -0.003915167
0.044564955 -0.10414814 -0.34926504 0.10356169 0.047477245 0.04874617 -0.12310616 -0.10226147
0.254289 -0.034484092 -0.028538812 0.020184502 -0.07863681 0.056405015 -0.011687481 0.0359949
0.036463246 0.08389923 0.068098865 0.016038962 -0.085057974 0.6562759 0.039137103 -0.011143083
-0.029923609 0.008568095 -0.06752964 0.0045397095 0.20440659 -0.04878942 0.22481558 0.0052668597
-0.1458311 -0.061373986 0.0046435418 0.37385243 0.10397404 -0.006978788 0.0256278 -0.06289323
0.36926818 -0.04036065 0.055845458 -0.1410233 0.046165977 0.06300742 -0.07913175 -0.060877513
0.06555801 0.0758124 -0.17281511 -0.097624056 -0.16358706 0.029659346 0.034486037 -0.11955028
-0.16056825 -0.11891874 -0.1312642 -0.090728894 -0.22439106 -0.07661727 -0.025527017 -0.04814156
-0.27923003 0.02410551 0.116764255 0.042791486
00000000: a12f 94bc ea85 d6bb f27d f0bd 9613 cf3d
00000010: 01f3 10bf 7bd7 26be 181b ae3c 2200 1f3e
00000020: 2b46 573e 5152 3b3e dd84 d4bc 4ae8 6c3d
00000030: e00e 413d a7d7 93bc 1f38 b83c 007a 093b
00000040: 7c26 a6bd 9461 1ebe 4ab6 71be b4dc 69bd
00000050: 05f6 93be c449 323d f357 4c3d 4b12 223e
00000060: 5d19 d93c adf4 2cbe 8d46 ec3e dfc5 8b3c
00000070: aff4 6cbe 53d5 593e 082b b53d cd4a 80bb
00000080: be89 363d 9f4b d5bd ded2 b2be 2718 d43d
00000090: 8077 423d 10aa 473d 151f fcbd 766e d1bd
000000a0: 2b32 823e 313f 0dbd 3aca e9bc f859 a53c
000000b0: 560c a1bd f208 673d d97c 3fbc 636f 133d
000000c0: 7c5a 153d 5cd3 ab3d 6b77 8b3d 2464 833c
000000d0: e032 aebd b301 283f 3a4e 203d 7a91 36bc
000000e0: 5b22 f5bc 3261 0c3c fb4c 8abd d8c1 943b
000000f0: f64f 513e 6ad7 47bd 0e36 663e 9f95 ac3b
00000100: bf54 15be 4a63 7bbd da28 983b 9669 bf3e
00000110: 57f0 d43d 51ae e4bb 64f1 d13c 2ace 80bd
00000120: b810 bd3e 3551 25bd 35be 643d 6968 10be
00000130: 8918 3d3d 090a 813d d40f a2bd b35a 79bd
00000140: 4743 863d 8843 9b3d 72f6 30be 1fef c7bd
00000150: 5e83 27be 28f8 f23c 3b41 0d3d c7d6 f4bd
00000160: 016c 24be ab8b f3bd 1f6a 06be 12d0 b9bd
00000170: c5c6 65be 84e9 9cbd 091e d1bc 1630 45bd
00000180: 3df7 8ebe eb78 c53c 1922 ef3d 2046 2f3d

weight f4 [100, 100]
0.047995437 0.04897455 -0.03738194 0.040689077 -0.12060258 -0.0037074103 -0.002496563 0.024922889
0.05575896 -0.012365763 0.06772919 -0.007770817 0.023936749 0.059531674 -0.03559276 -0.04840369
0.014988088 -0.087121 -0.023058472 -0.039922208 0.0366676 0.077367395 0.064595535 -0.016390176
-0.005895655 0.07681525 -0.081350386 -0.027071228 0.07556424 -0.046521205 -0.08733219 -0.02852974
-0.028951997 0.0633166 -0.09395976 0.09239311 0.066429526 0.08179059 0.081303485 -0.086483195
0.0013781444 -0.041413613 0.029807253 -0.038919948 -0.045593705 0.044765692 -0.04148916 -0.09532298
0.0918422 0.07459532 0.035923455 -0.053428773 0.046726864 -0.18243815 0.04084287 -0.07587728
-0.0007804417 0.08214976 -0.023910236 0.03140971 0.023995755 -0.009330516 0.11575904 -0.006455811
0.08390999 0.028116591 0.07401355 -0.09551271 0.027801577 0.012507826 0.113238886 0.091060705
0.07888856 -0.06304568 0.07414431 -0.05363351 -0.027984122 -0.08650963 -0.034653287 0.07231992
-0.06714025 -0.04193981 -0.08603276 0.014521386 -0.0067492486 -0.042860564 -0.0031530121 -0.03437142
0.03844028 0.0010778585 -0.064598456 -0.032465104 -0.028189708 0.04830956 0.023209067 -0.07599542
-0.091354355 0.05822795 -0.07455741 0.009331681 0.0238455 0.08888811 0.052457266 0.0065688677
-0.027267871 0.03616425 -0.02433227 -0.047727153 0.0040084934 -0.12022057 0.018490702 -0.045830783
-0.008073207 -0.07593211 0.06836414 0.035463132 0.018694343 0.068162106 -0.070728675 -0.06294847
0.12262807 -0.030962266 0.05314776 -0.063751616 -0.0067957817 0.042367414 -0.002052673 -0.058354177
-0.017887095 0.08516182 -0.08945287 -0.06553691 0.09175215 -0.0861288 0.043751027 -0.07709838
-0.07493398 0.058996797 0.104645 -0.024361582 -0.07369156 0.02621216 0.06847083 0.04256777
-0.09901523 -0.04465233 -0.05865525 -0.071164995 0.018215973 -0.07972053 0.011165418 0.080368795
0.0059281373 0.03875153 -0.0136220725 -0.02676361 0.049433522 0.09234688 0.005161536 -0.04261882
0.0035250657 0.00597392 -0.064782314 0.029537214 -0.0554578 0.05779489 -0.01737919 -0.05542561
-0.021638528 0.053362653 -0.11185057 0.06333759 0.0717032 0.08522716 0.04639503 -0.03289173
-0.104073815 0.0647851 -0.0025506746 -0.0051338063 -0.022022245 0.056072205 -0.021496706 -0.036906283
-0.04393612 0.09840542 -0.05234293 0.0870353 -0.015004827 0.031592228 0.07037653 -0.023527976
-0.043762494 0.015549678 -0.031602662 0.02046429 -0.014760415 0.020116325 -0.09822636 0.057643965
-0.075802796 0.10967611 0.050998278 0.03774552 0.15238893 0.04686408 -0.08005388 -0.049552523
-0.10306838 0.09347009 -0.0859896 -0.08035162 -0.08095869 -0.099774815 0.034965143 0.0003620237
0.0056068664 0.119687036 0.1211213 0.02246061 0.2058919 0.10193945 -0.08113931 -0.118603185
0.030671677 -0.012203945 -0.049329545 0.049876366 0.21166973 -0.07351089 -0.07877364 -0.09294453
-0.045143165 0.036369205 0.057457447 -0.043133732 0.021298701 0.029591355 -0.004383332 0.08766085
-0.10725689 0.031802747 0.051993288 -0.086605094 0.073177956 -0.11710902 -0.05304054 0.09316692
0.018091874 -0.08530746 -0.0134703275 0.00040215676 0.104721606 -0.14728431 -0.04310735 0.08184095
00000000: dd96 443d 8a99 483d ce1d 19bd 97a9 263d
00000010: 7cfe f6bd 06f8 72bb 609d 23bb 162b cc3c
00000020: 8263 643d c599 4abc 9ab5 8a3d 56a2 febb
00000030: 0017 c43c 7cd7 733d b7c9 11bd f342 46bd
00000040: 9990 753c 7f6c b2bd 1fe5 bcbc 7885 23bd
00000050: c430 163d cc72 9e3d aa4a 843d b144 86bc
00000060: 5730 c1bb 5051 9d3d 089b a6bd 7bc4 ddbc
00000070: 6dc1 9a3d 058d 3ebd 38db b2bd 34b7 e9bc
00000080: bd2c edbc 22ac 813d fa6d c0bd 9938 bd3d
00000090: 340c 883d d381 a73d 7182 a63d 1a1e b1bd
000000a0: daa2 b43a 52a1 29bd 572e f43c 866a 1fbd
000000b0: 77c0 3abd 3b5c 373d 8af0 29bd b238 c3bd
000000c0: c317 bc3d 6ec5 983d 7924 133d 21d8 5abd
000000d0: ab64 3f3d 11d1 3abe da4a 273d 8c65 9bbd
000000e0: 8e96 4cba 223e a83d 66df c3bc 78a7 003d
000000f0: bf92 c43c 05df 18bc 1313 ed3d 458b d3bb
00000100: 00d9 ab3d c454 e63c 6b94 973d 2b9c c3bd
00000110: 22c0 e33c a0ed 4c3c cae9 e73d 097e ba3d
00000120: 5390 a13d 181e 81bd f9d8 973d d0ae 5bbd
00000130: f53e e5bc f62b b1bd 9bf0 0dbd 771c 943d
00000140: d480 89bd 14c9 2bbd f231 b0bd 1beb 6d3c
00000150: cd28 ddbb 8f8e 2fbd c4a2 4ebb 0cc9 0cbd
00000160: 8e73 1d3d ee46 8d3a 324c 84bd 21fa 04bd
00000170: 1aee e6bc 3fe0 453d f120 be3c 7da3 9bbd
00000180: fe17 bbbd 6e80 6e3d 8eb1 98bd e8e3 183c
00000190: a357 c33c f80a b63d 6edd 563d a83f d73b
000001a0: df60 dfbc f720 143d 7854 c7bc 8c7d 43bd
000001b0: ae59 833b 3436 f6bd d079 973c 0fb9 3bbd
000001c0: 7c45 04bc 4b82 9bbd 8002 8c3d ca41 113d
000001d0: e124 993c 9398 8b3d 32da 90bd 21eb 80bd
000001e0: 6d24 fb3d 94a4 fdbc 77b1 593d 3590 82bd
000001f0: 26af debb 7489 2d3d 2386 06bb ca04 6fbd
00000200: f587 92bc 5269 ae3d 1133 b7bd 3738 86bd
00000210: 8de8 bb3d 4c64 b0bd 4734 333d c1e5 9dbd
00000220: fd76 99bd a0a6 713d 1e50 d63d f191 c7bc
00000230: 9aeb 96bd e2ba d63c 6f3a 8c3d 8b5b 2e3d
00000240: 7fc8 cabd 5de5 36bd 7d40 70bd f4be 91bd
00000250: aa39 953c 8444 a3bd 28ef 363c 6598 a43d
00000260: d240 c23b edb9 1e3d 1d2f 5fbc 5c3f dbbc
00000270: ce7a 4a3d 5c20 bd3d 1a22 a93b 1291 2ebd
00000280: ca04 673b e0c0 c33b 97ac 84bd 07f8 f13c
00000290: b827 63bd 56ba 6c3d ce5e 8ebc f705 63bd
000002a0: 4843 b1bc cc92 5a3d e911 e5bd 23b7 813d
000002b0: 21d9 923d 948b ae3d b708 3e3d 7bb9 06bd
000002c0: a724 d5bd 0dae 843d 3829 27bb 7d39 a8bb
000002d0: ff67 b4bc f8ab 653d dc19 b0bc 0b2b 17bd
000002e0: 5cf6 33bd c888 c93d 8a65 56bd 903f b23d
000002f0: ced6 75bc da66 013d 9221 903d bebd c0bc
00000300: 4d40 33bd 14c4 7e3c cb71 01bd baa4 a73c
00000310: abd5 71bc feca a43c e72a c9bd 141c 6c3d
00000320: 7f3e 9bbd de9d e03d 92e3 503d 0c9b 1a3d
00000330: d80b 1c3e 8df4 3f3d 4af3 a3bd 96f7 4abd
00000340: 8415 d3bd 3f6d bf3d 511b b0bd 648f a4bd
00000350: abcd a5bd bd56 ccbd 9c37 0f3d 00ce bd39
00000360: ceb9 b73b 7a1e f53d 720e f83d 50ff b73c
00000370: 54d5 523e a1c5 d03d 5e2c a6bd 3ae6 f2bd
00000380: 2b43 fb3c 0ef3 47bc c70d 4abd 294b 4c3d
00000390: f3bf 583e e18c 96bd 1354 a1bd b459 bebd
000003a0: 0ae8 38bd e0f7 143d 8058 6b3d ffac 30bd
000003b0: 9d7a ae3c 9269 f23c 0ea2 8fbb 8887 b33d
000003c0: 80a9 dbbd 9943 023d eaf6 543d 035e b1bd
000003d0: 53de 953d dbd6 efbd 0a41 59bd 4cce be3d
000003e0: 6935 943c adb5 aebd a6b2 5cbc 91d8 d239
000003f0: 4878 d63d b3d1 16be 5591 30bd 3a9c a73d

bias f4 [100]
0.083956786 0.089710005 -0.47112137 0.18026596 0.079153925 0.036059782 0.002450811 0.012490638
0.0973861 0.09353999 0.13395497 -0.09175163 -0.0048095495 -0.07183311 0.07318355 0.01156945
0.121585354 -0.10349943 0.11447595 -0.5899802 0.07034068 0.018869983 0.026407976 -0.070768476
-0.05106478 0.008549347 -0.0330947 0.048485104 -0.04111923 -0.115047775 -0.053743795 -0.32110703
0.17860635 -0.0015612665 0.2147448 -0.0045782356 0.1022258 -0.0277973 0.08967579 0.031046662
-0.04908908 0.031789932 0.03008646 -0.01115251 0.11409878 0.05406629 0.023945212 -0.05405706
-0.009549264 0.01608026 0.04480885 0.049096275 0.14776692 -0.09223643 0.028898226 0.17238723
-0.008723804 0.17508802 0.06739985 -0.1168755 0.15243855 -0.10617456 -0.06449393 0.025843315
-0.10284447 0.05343637 -0.05280857 0.06576469 0.1141794 0.10145579 0.09167449 -0.08663158
-0.051633377 0.03151593 0.013946062 -0.078941815 0.15890315 0.12438237 -0.0824559 -0.038726214
0.05800529 -0.07875851 -0.090581454 -0.15614939 0.100003995 0.20548029 -0.10920707 0.052558925
0.075775355 0.067854136 -0.26124644 -0.003215414 0.094421655 0.48030314 -0.04611412 -0.07539706
-0.12695523 -0.25658375 0.08769181 -0.027611284
00000000: 89f1 ab3d e1b9 b73d d236 f1be a497 383e
00000010: 741b a23d 6cb3 133d c99d 203b 88a5 4c3c
00000020: 5d72 c73d e591 bf3d 7e2b 093e 47e8 bbbd
00000030: 6d99 9dbb 3d1d 93bd 42e1 953d ca8d 3d3c
00000040: be01 f93d 82f7 d3bd 5e72 ea3d f108 17bf
00000050: c60e 903d 3995 9a3c 8a55 d83c 10ef 90bd
00000060: 4e29 51bd 8f12 0c3c 4f8e 07bd 5198 463d
00000070: a36c 28bd 2b9e ebbd 7422 5cbd 2468 a4be
00000080: 95e4 363e 69a3 ccba 10e6 5b3e 0605 96bb
00000090: c35b d13d 2ab7 e3bc f1a7 b73d 9255 fe3c
000000a0: a211 49bd 2936 023d e177 f63c 04b9 36bc
000000b0: 9fac e93d 9d74 5d3d c028 c43c f06a 5dbd
000000c0: 8474 1cbc c0ba 833c 7c89 373d 2d19 493d
000000d0: 3650 173e 74e6 bcbd f9bb ec3c 4786 303e
000000e0: 49ee 0ebc 464a 333e ef08 8a3d 6c5c efbd
000000f0: da18 1c3e 0c72 d9bd 6515 84bd 5cb5 d33c
00000100: 1fa0 d2bd 18e0 5a3d cd4d 58bd a3af 863d
00000110: e4d6 e93d 0ec8 cf3d d6bf bb3d e66b b1bd
00000120: 857d 53bd d916 013d 067e 643c 3fac a1bd
00000130: 82b7 223e 2fbc fe3d a4de a8bd 619f 1ebd
00000140: f496 6d3d 244c a1bd c582 b9bd a0e5 1fbe
00000150: e5ce cc3d 6d69 523e f5a7 dfbd 0748 573d
00000160: 1c30 9b3d 1cf7 8a3d 18c2 85be b2b9 52bb
00000170: 2460 c13d 4bea f53e 29e2 3cbd c669 9abd
00000180: 8d00 02be f25e 83be c497 b33d 0f31 e2bc

weight f4 [100, 100]
0.029661873 -0.002300782 0.04559102 0.08372623 0.03656879 -0.075005546 0.08238515 0.16076681
-0.10373934 0.017537855 -0.103623584 -0.040783834 -0.09525661 -0.030473424 -0.024988052 -0.008341263
0.045063615 0.106673986 0.077940695 0.09684649 0.04317883 0.12731285 -0.02097788 0.07835143
-0.07314088 0.02499983 -0.09469727 0.09241679 0.071182124 -0.003976782 0.010010938 0.00490111
0.011154075 -0.024783127 0.11482168 0.046568476 0.08971244 0.08020558 0.0869084 -0.11510511
0.0040905764 -0.056864217 -0.000663804 -0.024370987 0.006024448 0.0426809 -0.12302767 0.030584311
-0.0872395 -0.036725122 0.011649853 0.013777378 -0.08530542 -0.04721166 0.06550678 0.12251351
0.0026479827 -0.05215647 -0.0043205633 0.13274166 0.021433642 -0.042212583 0.09528988 -0.051109727
-0.05894206 0.08562019 0.085280955 0.032754786 0.037290998 -0.07978982 0.09666706 0.17459556
0.06654659 -0.059086565 0.12855138 0.037030578 -0.07086414 -0.0038310706 -0.064777985 0.059315454
0.035833515 -0.042983584 -0.03901305 0.03232547 -0.13167341 -0.00849373 0.13546874 0.034789525
0.05187403 0.069304205 -0.053649202 0.08900149 0.20225966 0.19597438 0.09486112 0.032205693
0.12695226 0.08251602 -0.045636065 -0.06986676 0.069952756 0.02858263 -0.08280481 0.046050854
0.090419434 -0.09777741 -0.026186094 -0.09312341 -0.07526462 0.017421998 -0.041206617 -0.014587596
0.055734463 -0.025154773 -0.087905064 0.06074784 -0.00856349 0.06778861 0.07978729 -0.05385687
0.05468198 -0.07745417 -0.07779352 -0.046328057 -0.077301204 0.07199083 -0.023577688 -0.049370524
-0.066368856 -0.025276497 0.053691857 0.026145276 0.055445667 0.049952485 -0.07197653 0.07359899
0.007078241 0.006593655 -0.025404729 -0.0119006485 0.051802136 -0.011623229 0.06219901 -0.08204721
-0.0898915 0.08874833 0.049410023 -0.085767634 0.00088306074 -0.038129162 -0.043820776 0.005156104
-0.06145505 0.026299482 -0.015921269 -0.06581334 0.053384267 -0.06367737 0.0017775287 0.082592376
0.00271447 -0.064338535 -0.067962006 -0.028618729 -0.085303135 -0.036216233 0.06868202 -0.06430796
-0.082059294 -0.0049856543 -0.08098531 -0.0984498 -0.058122445 -0.09102725 -0.0036291033 0.022113584
-0.021858435 0.03277441 -0.00038798153 -0.023813723 -0.021369705 -0.076260425 0.024404705 -0.08970534
-0.06424023 0.038329847 -0.045041915 -0.044506412 0.022755563 0.000203537 0.01685325 0.04727001
-0.033234462 0.04394276 0.05540902 0.08173893 -0.047415607 0.09383393 -0.09702341 0.018700916
0.016968295 -0.04617439 -0.07541234 0.058706075 -0.054348417 -0.03974332 -0.024638189 -0.017503109
-0.02241705 -0.08295167 0.15956017 -0.060856096 -0.030846525 0.062488846 -0.06706414 0.121629834
-0.07234141 0.010388773 -0.03506391 -0.045718156 0.009817999 0.061303925 0.052267265 -0.011852957
-0.014020461 -0.099638976 0.11081391 -0.016844718 -0.066772394 -0.10705668 0.084500566 -0.053401526
0.079964064 0.027797816 0.050483074 0.067324646 -0.0828609 -0.011617794 0.057799585 -0.050560124
0.0030641966 -0.022984715 -0.09141128 -0.029282345 0.070252635 0.038055632 0.07474346 0.075731225
0.09099414 0.0059711374 0.08469211 -0.07084736 0.017248996 0.0666092 0.059555143 0.031539444
00000000: 75fd f23c b7c8 16bb a6bd 3a3d a878 ab3d
00000010: 28c9 153d 829c 99bd 8cb9 a83d 0ea0 243e
00000020: 4b75 d4bd 8cab 8f3c 9a38 d4bd f30c 27bd
00000030: e615 c3bd 67a3 f9bc beb3 ccbc cba9 08bc
00000040: a094 383d e477 da3d 5f9f 9f3d 7457 c63d
00000050: 49dc 303d 4d5e 023e ced9 abbc b776 a03d
00000060: e3ca 95bd 72cc cc3c a4f0 c1bd 0445 bd3d
00000070: efc7 913d aa4f 82bb eb04 243c 7e99 a03b
00000080: 95bf 363c fc05 cbbc a127 eb3d 96be 3e3d
00000090: 28bb b73d d342 a43d 08fd b13d 3abc ebbd
000000a0: 3e0a 863b 74ea 68bd 2203 2eba aaa5 c7bc
000000b0: bc68 c53b 2bd2 2e3d eef5 fbbd f38b fa3c
000000c0: 9faa b2bd 156d 16bd 06df 3e3c 83ba 613c
000000d0: 9cb4 aebd 0361 41bd 6b28 863d 5de8 fa3d
000000e0: c789 2d3b 06a2 55bd 8393 8dbb 6eed 073e
000000f0: 9b95 af3c 1ae7 2cbd 5727 c33d 6f58 51bd
00000100: 3b6d 71bd a359 af3d c8a7 ae3d e229 063d
00000110: 72be 183d d868 a3bd 61f9 c53d 2ec9 323e
00000120: 9449 883d c104 72bd f9a2 033e 60ad 173d
00000130: 3821 91bd b312 7bbb 52aa 84bd c3f4 723d
00000140: 2ac6 123d 8e0f 30bd 26cc 1fbd b667 043d
00000150: 65d5 06be 4929 0bbc 51b8 0a3e 767f 0e3d
00000160: dd79 543d 5def 8d3d 44bf 5bbd 6a46 b63d
00000170: 281d 4f3e 82ad 483e 8c46 c23d 1eea 033d
00000180: c6ff 013e 29fe a83d e2ec 3abd 4e16 8fbd
00000190: 6443 8f3d 1f26 ea3c 9195 a9bd d29f 3c3d
000001a0: d32d b93d 863f c8bd 3884 d6bc 7db7 bebd
000001b0: 5624 9abd 94b8 8e3c 45c8 28bd d000 6fbc
000001c0: d249 643d 6211 cebc 9207 b4bd bad2 783d
000001d0: e14d 0cbc c1d4 8a3d 8567 a33d 0599 5cbd
000001e0: 36fa 5f3d 4ba0 9ebd 3652 9fbd 7dc2 3dbd
000001f0: 1850 9ebd ee6f 933d ff25 c1bc bf38 4abd
00000200: 65ec 87bd a810 cfbc feeb 5b3d 9e2e d63c
00000210: ff1a 633d fa9a 4c3d 6e68 93bd 11bb 963d
00000220: 97f0 e73b 960f d83b 941d d0bc f0fa 42bc
00000230: 7a2e 543d 5b6f 3ebc 64c4 7e3d 5e08 a8bd
00000240: 0919 b8bd afc1 b53d 2a62 4a3d f1a6 afbd
00000250: 347d 673a 532d 1cbd 6a7d 33bd 89f4 a83b
00000260: 4ab8 7bbd 0372 d73c 526d 82bc 25c9 86bd
00000270: 76a9 5a3d 4869 82bd f7fb e83a 3126 a93d
00000280: 40e5 313b ecc3 83bd aa2f 8bbd d371 eabc
00000290: 69b3 aebd 7957 14bd 29a9 8c3d e4b3 83bd
000002a0: b40e a8bd b35e a3bb a0db a5bd 0ca0 c9bd
000002b0: cd11 6ebd 7f6c babd 40d6 6dbb 8c27 b53c
000002c0: 7610 b3bc 763e 063d 006a cbb9 ff14 c3bc
000002d0: 850f afbc 6d2e 9cbd 60ec c73c 6fb7 b7bd
000002e0: 6290 83bd c2ff 1c3d df7d 38bd 5b4c 36bd
000002f0: e069 ba3c 8c6c 5539 d40f 8a3c 339e 413d
00000300: dc20 08bd 53fd 333d 92f4 623d bd66 a73d
00000310: de36 42bd 012c c03d 36b4 c6bd aa32 993c
00000320: 1801 8b3c 5b21 3dbd c971 9abd c875 703d
00000330: 729c 5ebd e4c9 22bd 07d6 c9bc ae62 8fbc
00000340: f6a3 b7bc 91e2 a9bd be63 233e 3e44 79bd
00000350: dab1 fcbc 4ef4 7f3d ed58 89bd 1019 f93d
00000360: bc27 94bd ac35 2a3c 2d9f 0fbd f642 3bbd
00000370: acdb 203c d319 7b3d 3316 563d e832 42bc
00000380: 13b6 65bc 850f ccbd 67f2 e23d effd 89bc
00000390: f7bf 88bd 8840 dbbd a20e ad3d 8fbb 5abd
000003a0: 33c4 a33d 3fb8 e33c 57c7 4e3d 81e1 893d
000003b0: fab2 a9bd 8f58 3ebc 42bf 6c3d 2218 4fbd
000003c0: b0d0 483b 714a bcbc d635 bbbd 87e1 efbc
000003d0: 9de0 8f3d 39e0 1b3d 1913 993d f918 9b3d
000003e0: 235b ba3d 88a9 c33b 0f73 ad3d 6c18 91bd
000003f0: c44d 8d3c 676a 883d 18f0 733d 812f 013d

bias f4 [100]
-0.047754943 -0.024172995 0.09625534 -0.048132315 0.05873824 0.05460343 -0.06978955 0.00680776
-0.042086508 -0.06461872 -0.016596433 0.16520402 0.023858117 0.071253605 0.0679367 -0.28271148
0.25089008 0.026358133 0.012053449 0.12098145 0.10579002 0.16288263 0.06462205 0.12647237
0.19234598 -0.08065518 0.033542484 -0.022096293 0.019542377 -0.100060716 -0.058437917 -0.03334671
0.07011739 -0.06657892 -0.016820524 0.07409148 -0.05609125 0.08243444 0.08782689 0.097652525
0.1664185 -0.11105451 -0.05207061 0.007953873 -0.050695788 -0.03618187 -0.48561904 -0.18277532
-0.0030523315 -0.0073809405 -0.033798106 0.087219805 0.10943222 0.16671976 -0.08197699 -0.072050944
-0.2715458 -0.08050262 0.03237311 0.06960954 -0.11606044 -0.020704675 0.07407667 -0.0674577
-0.0060070376 0.10707835 -0.03647314 0.0669336 0.14892891 -0.07716157 0.075317085 0.008090209
-0.06990099 0.058222372 0.10034983 0.32243225 0.025680248 0.028363565 0.08167096 0.08903788
-0.019147953 0.014490574 -0.06364952 -0.017148154 0.09841604 -0.07433077 0.20185135 0.01800239
0.19659089 0.038827814 0.07349904 0.11092043 0.025145663 0.0014951817 0.15744588 0.00072383514
0.13676524 -0.085015655 0.05909514 0.10150119
00000000: b09a 43bd 7206 c6bc 8521 c53d 6426 45bd
00000010: 8297 703d d9a7 5f3d d3ed 8ebd a113 df3b
00000020: e762 2cbd d256 84bd 3ef5 87bc 3e2b 293e
00000030: 1972 c33c 69ed 913d 6622 8b3d 8fbf 90be
00000040: aa74 803e 03ed d73c d47b 453c 1fc5 f73d
00000050: 70a8 d83d b4ca 263e 9158 843d f981 013e
00000060: 58f6 443e 8b2e a5bd d863 093d 4903 b5bc
00000070: 5617 a03c a2ec ccbd 995c 6fbd 8f96 08bd
00000080: b599 8f3d 875a 88bd 32cb 89bc 46bd 973d
00000090: f0bf 65bd 63d3 a83d 96de b33d 0cfe c73d
000000a0: 9c69 2a3e 8c70 e3bd fe47 55bd f650 023c
000000b0: 63a6 4fbd 7133 14bd 0fa3 f8be 7429 3bbe
000000c0: a009 48bb d1db f1bb e26f 0abd 4ca0 b23d
000000d0: 001e e03d 96b8 2a3e 8de3 a7bd 728f 93bd
000000e0: 0d08 8bbe 8fde a4bd ab99 043d 728f 8e3d
000000f0: 19b1 edbd da9c a9bc 82b5 973d 4327 8abd
00000100: afd6 c4bb e54b db3d dc64 15bd 7c14 893d
00000110: d280 183e e306 9ebd d83f 9a3d cc8c 043c
00000120: 4028 8fbd 957a 6e3d 3684 cd3d d715 a53e
00000130: 625f d23c b55a e83c 1b43 a73d 7e59 b63d
00000140: 2bdc 9cbc df69 6d3c ae5a 82bd 497a 8cbc
00000150: 598e c93d bb3a 98bd 1fb2 4e3e c079 933c
00000160: 1f4f 493e ea09 1f3d aa86 963d 402a e33d
00000170: 47fe cd3c f9f9 c33a 7e39 213e c1bf 3d3a
00000180: 300c 0c3e b01c aebd bf0d 723d dbdf cf3d

weight f4 [7, 100]
0.026075944 -0.032294914 -0.033497036 0.07166756 -0.048742227 0.04290721 -0.05330028 0.09717835
-0.05067445 -0.11666672 0.014776028 0.03410425 -0.014361713 -0.0950352 0.09609842 0.02371506
0.022533247 -0.06716053 -0.01910575 -0.016971694 -0.12871584 0.021036698 -0.0010911827 -0.06655793
-0.0606808 0.04986799 -0.14793228 -0.027231507 -0.053488676 -0.013861174 0.048237856 0.019631032
-0.08461887 0.041474257 -0.04201899 0.085377045 0.029141957 0.0797283 0.035969898 0.07952529
-0.077519976 0.012517157 0.004425531 0.045135904 0.05735067 -0.087893434 0.07774917 -0.080789596
0.06570063 0.042887643 -0.04223695 -0.046105355 -0.14039026 -0.10892464 -0.042880252 0.03158551
-0.097165614 -0.002559182 -0.02087075 -0.027443971 -0.037334755 -0.091045044 0.0653213 0.05522986
0.08867 -0.18217663 -0.0660923 0.09411326 -0.09847024 0.04380789 -0.11002825 0.083537735
0.071964525 -0.11547763 -0.06627011 -0.030964982 -0.032798015 0.095951684 -0.077179484 0.0665105
0.04379275 -0.10507536 -0.18259732 -0.06327888 0.0070642624 -0.09840139 -0.08111725 0.058399413
-0.006794623 0.03890224 -0.16873425 0.008302138 -0.033342276 0.00032809665 -0.050795343 -0.0017142158
-0.020176215 0.04607204 -0.16054164 0.032333888 -0.3805228 -0.00038083395 0.13594818 0.0019301743
0.016956208 0.07971432 0.099021845 0.01525805 0.20356071 0.2296765 -0.0064876094 0.08458218
0.07003516 -0.07900538 0.05873981 0.121120386 -0.035141073 0.38287446 0.063301116 -0.044486012
-0.07921361 -0.00420521 0.059253786 0.022191083 -0.14259288 0.025676528 0.0061520864 0.061941635
-0.13332747 0.050774574 0.0036280926 0.018569572 -0.13040622 0.06343803 -0.015053915 -0.09528009
0.08426375 -0.000102764025 0.029966215 0.11167148 -0.16762912 0.044645283 -0.06567536 -0.06742259
0.0287574 0.026692448 -0.042034537 -0.008563285 0.26823547 0.07000191 -0.06700701 -0.0053691682
-0.19473194 0.21950538 0.08969666 0.3278083 -0.14530112 -0.043363314 -0.11497167 0.05974443
-0.29153192 0.049962517 -0.079030745 0.0021218474 0.11777765 -0.19168538 0.09392175 -0.121479064
0.20494145 -0.02731547 -0.14672188 -0.059653237 -0.031444587 -0.026991552 -0.06282059 -0.10478499
0.0013438019 0.008843789 -0.3450528 0.09751998 -0.08448042 -0.17089573 -0.3128076 0.0525053
0.055858642 0.2835837 -0.32258907 -0.0023576345 -0.3077775 -0.0845849 -0.031472743 0.11014478
0.31456158 -0.07351126 -0.45663747 -0.0041778293 -0.15709217 0.20021752 -0.07988585 0.1398916
0.13161287 0.080570266 -0.010230895 0.29199645 0.04920018 -0.011366954 0.05035923 0.007744177
0.17140548 -0.069734804 0.010261058 0.12591504 -0.12881577 0.1441823 0.005177782 0.09318386
-0.12454392 -0.10557822 -0.15291823 0.27345064 -0.4005731 -0.18110515 -0.10093192 0.24303967
0.45230952 0.018456705 0.2251923 -0.040152773 0.13017885 0.10683388 0.043817278 0.24026316
-0.22158186 -0.06589845 -0.18515334 0.07303976 -0.008481748 0.06567071 0.12203607 0.058233153
-0.009121779 -0.0340768 -0.26925075 0.25741136 0.0769444 -0.048908107 0.06838985 0.017543256
0.22668183 0.062323034 0.04376613 -0.1114486 0.31176847 -0.22955672 -0.14609805 0.1825943
00000000: 389d d53c ac47 04bd 3034 09bd 71c6 923d
00000010: eea5 47bd 78bf 2f3d 6551 5abd 7105 c73d
00000020: 0390 4fbd f6ee eebd 2717 723c e6b0 0b3d
00000030: 644d 6bbc d1a1 c2bd 40cf c43d 1646 c23c
00000040: a597 b83c 768b 89bd a983 9cbc 3908 8bbc
00000050: 16ce 03be 2755 ac3c 0406 8fba 864f 88bd
00000060: 6e8c 78bd 6142 4c3d 8f7b 17be 9c14 dfbc
00000070: f116 5bbd fa19 63bc 0f95 453d 42d1 a03c
00000080: a84c adbd e9e0 293d 1b1c 2cbd 29da ae3d
00000090: 1dbb ee3c 9748 a33d 2c55 133d 28de a23d
000000a0: cbc2 9ebd c314 4d3c 0b04 913b 6de0 383d
000000b0: 89e8 6a3d 7901 b4bd f53a 9f3d 0475 a5bd
000000c0: 0d8e 863d f4aa 2f3d a700 2dbd f8d8 3cbd
000000d0: 77c2 0fbe e213 dfbd 34a3 2fbd cf5f 013d
000000e0: c4fe c6bd f3b7 27bb 23f9 aabc 2ed2 e0bc
000000f0: 54ec 18bd d375 babd 2cc7 853d b538 623d
00000100: 9e98 b53d 838c 3abe 665b 87bd 74be c03d
00000110: c4aa c9bd e76f 333d 7e56 e1bd d515 ab3d
00000120: 2362 933d 897f ecbd a0b8 87bd 46aa fdbc
00000130: 3657 06bd 5182 c43d 4710 9ebd a836 883d
00000140: 0760 333d c031 d7bd cbfa 3abe 5c98 81bd
00000150: 547b e73b ab86 c9bd cd20 a6bd 3934 6f3d
00000160: 6ea5 debb f557 1f3d acc8 2cbe b105 083c
00000170: e991 08bd 6304 ac39 c70e 50bd 8aaf e0ba
00000180: 9748 a5bc 09b6 3c3d 0765 24be 8a70 043d
00000190: e2d3 c2be abaa c7b9 0036 0b3e e7fd fc3a
000001a0: bfe7 8a3c 4341 a33d f7cb ca3d e6fc 793c
000001b0: 3872 503e 5130 6b3e 0396 d4bb 6c39 ad3d
000001c0: 986e 8f3d 93cd a1bd 2899 703d f70d f83d
000001d0: 16f0 0fbd 1f08 c43e 04a4 813d f736 36bd
000001e0: bf3a a2bd dccb 89bb 19b4 723d 13ca b53c
000001f0: de03 12be 9557 d23c 7197 c93b 83b6 7d3d
00000200: ff86 08be 00f9 4f3d 4bc5 6d3b 371f 983c
00000210: 3589 05be cceb 813d b2a4 76bc 3522 c3bd
00000220: 7992 ac3d 0483 d7b8 b57b f53c 04b4 e43d
00000230: f8a6 2bbe f9dd 363d ce80 86bd db14 8abd
00000240: a494 eb3c 1faa da3c 682c 2cbd 054d 0cbc
00000250: 2956 893e 295d 8f3d f93a 89bd d9ef afbb
00000260: cf67 47be 05c6 603e e2b2 b73d 7dd6 a73e
00000270: d1c9 14be bb9d 31bd 4476 ebbd 93b6 743d
00000280: ac43 95be 7fa5 4c3d dfda a1bd b10e 0b3b
00000290: 6935 f13d 2c49 44be 0c5a c03d 04ca f8bd
000002a0: 2cdc 513e b1c4 dfbc 433e 16be f456 74bd
000002b0: 0acc 00bd 631d ddbc 15a8 80bd 8399 d6bd
000002c0: 8222 b03a 8ae5 103c c3aa b0be 8eb8 c73d
000002d0: 1204 adbd 4aff 2ebe 5128 a0be cc0f 573d
000002e0: 08cc 643d e231 913e 652a a5be 8b82 1abb
000002f0: 0395 9dbe d93a adbd 90e9 00bd 9693 e13d
00000300: 370e a13e 128d 96bd 63cc e9be 2ce6 88bb
00000310: c5dc 20be d205 4d3e 319b a3bd be3f 0f3e
00000320: 86c5 063e 0602 a53d 7c9f 27bc 8f80 953e
00000330: 2186 493d 763c 3abc 7b45 4e3d ddc2 fd3b
00000340: eb84 2f3e 1fd1 8ebd ff1d 283c dfef 003e
00000350: 48e8 03be 86a4 133e 62aa a93b 2ed7 be3d
00000360: e210 ffbd 6539 d8bd 9996 1cbe b901 8c3e
00000370: eb17 cdbe a173 39be 65b5 cebd 64df 783e
00000380: 1d95 e73e 8432 973c cf98 663e 3c77 24bd
00000390: 9b4d 053e b9cb da3d bf79 333d 8c07 763e
000003a0: 5be6 62be c4f5 86bd d698 3dbe df95 953d
000003b0: 08f7 0abc 5d7e 863d 0cee f93d e385 6e3d
000003c0: 8473 15bc 1d94 0bbd 3cdb 89be 6ccb 833e
000003d0: 0795 9d3d de53 48bd fa0f 8c3d e0b6 8f3c
000003e0: 481f 683e 7046 7f3d 1d44 333d 2a3f e4bd
000003f0: 1ea0 9f3e eb10 6bbe ba9a 15be 00fa 3a3e

bias f4 [7]
-0.14554028 0.05503827 0.3773213 -0.31320783 -0.14182088 -0.19493258 0.43231794
00000000: 8308 15be cf6f 613d 4230 c13e c75c a0be
00000010: 7e39 11be 689c 47be c758 dd3e
